CS260R/Pts/dqn_trainer_cartpole.pt (torch, 46513 bytes, 6 tensors)

action_value.0.weight f4 [100, 4]
0.24318546 0.65866476 0.5644495 0.32427484 -0.55161417 -0.043204058 0.97749364 0.20132095
0.20372054 -0.48193192 -0.19190075 0.381585 -0.17997208 -0.19356844 1.5218089 0.38607958
-0.25895315 0.0043802992 -0.37473506 -0.09976934 0.03920265 0.08186485 -0.73533773 -0.30805916
0.80971986 -0.28217924 -0.6057944 -0.05819601 0.21331163 0.51106876 0.37412602 0.1695258
0.08816844 -0.030344784 0.27868646 -0.11134988 0.56330395 0.6839585 1.7775371 0.48175567
-1.013641 -0.33124447 0.24139515 -0.18234381 -0.17394161 -0.2131343 0.15158209 -0.35415304
-0.17247912 -0.17853631 -0.34339064 0.03687603 -0.07716128 0.20703262 -0.69977695 0.017256446
0.57135075 -0.58769614 -0.39929712 0.16989528 0.69681907 0.4820187 0.41644228 0.20258431
-0.0028885624 -0.2979847 -0.9894361 -0.41064972 0.2787673 -0.2002012 -0.3894009 -0.3278002
-0.25845486 0.28877738 1.0638866 -0.04305452 0.09146331 -0.44505808 -0.5631668 -0.5294745
-0.7610813 -0.1379275 1.1085562 0.25918555 0.7369896 0.6124332 -0.02987304 0.3295647
-0.53043324 -0.10082446 0.55081415 -0.019747218 0.49298704 -0.43070367 -0.57398164 -0.3236201
0.16526856 -0.32066858 -0.45883167 0.19260226 -0.32522288 0.5059722 2.0034387 0.6263462
0.18208438 -0.16951415 -0.72564614 -0.28004044 -0.63604915 -0.3506458 -0.23627791 -0.22921416
-0.4326791 0.42795765 -0.37997615 0.3029124 0.3600345 -0.26678836 0.39518684 -0.2325121
0.2242866 -0.36171076 -0.4476506 -0.29787242 -0.1562657 0.36533904 -1.432766 -0.31270617
0.16110042 -0.27086288 1.1849521 0.24889351 0.05507329 0.14989819 -1.1446811 -0.36876822
-0.20013137 -0.15965638 -1.2183493 -0.3196132 0.4934147 -0.5794415 -1.3034526 -0.4617908
-0.057092693 0.08845768 0.9091775 -0.11117145 0.7491896 0.16544917 -0.54332834 0.045817938
0.106981575 -0.06667399 -0.043697614 -0.18010488 0.5990527 0.16210061 0.07016782 0.3269475
0.03502586 -0.14644222 -0.9202452 -0.16186151 0.5202919 -0.2818434 0.56970173 -0.19767407
-0.28772724 0.0077800886 -0.5714996 -0.09288577 0.7250535 0.640492 -0.06810865 0.3117855
0.041781455 -0.5858692 -1.1221538 -0.4713971 0.015612207 0.20377761 -1.5172684 -0.18934973
-0.055222094 -0.3511634 0.18934366 -0.32806996 -0.7612319 -0.34374648 0.86492574 0.1238522
-0.023629904 0.13396281 0.09367514 0.034828484 0.38894126 -0.35751188 -0.11238116 -0.2487229
0.27434427 -0.32611927 -1.2948309 0.42543182 0.7092445 -0.30937377 -0.6670721 0.16031916
-0.4984819 0.41442388 0.42090994 0.11124197 -1.0752009 -0.28204033 0.5867099 -0.036715474
-0.35270256 0.3955016 0.38302764 -0.065429844 1.143798 0.33077073 -0.34963074 0.10932022
0.15880194 -0.07053553 -1.0741088 -0.06389713 -0.34876192 -0.035799906 0.6200021 -0.034702763
0.031727605 0.8921628 0.055114284 0.42331177 0.051269975 -0.2767618 -1.3891162 -0.24519323
-0.53959155 0.30793273 0.9477987 -0.014933623 -0.02779515 -0.32734597 1.192666 -0.0082673
-0.3009753 0.25506166 0.3518215 0.008150631 0.47591808 -0.44743028 -0.44461265 0.09990369
00000000: 9c05 793e 419e 283f c37f 103f 5a07 a63e
00000010: 9636 0dbf bdf6 30bd 063d 7a3f 1427 4e3e
00000020: 1e9c 503e c8bf f6be a181 44be 1c5f c33e
00000030: 9a4a 38be ce36 46be a2ca c23f 39ac c53e
00000040: 8295 84be 9d88 8f3b 46dd bfbe de53 ccbd
00000050: f592 203d c2a8 a73d 183f 3cbf eeb9 9dbe
00000060: cd49 4f3f cc79 90be 5815 1bbf f05e 6ebd
00000070: 5d6e 5a3e 67d5 023f 728d bf3e 2c98 2d3e
00000080: a891 b43d a095 f8bc feaf 8e3e 680b e4bd
00000090: b034 103f e717 2f3f 5686 e33f aea8 f63e
000000a0: fdbe 81bf e098 a9be 4a30 773e 56b8 3abe
000000b0: c01d 32be e13f 5abe 5638 1b3e 8c53 b5be
000000c0: 5e9e 30be 39d2 36be e6d0 afbe 520b 173d
000000d0: bc06 9ebd 5c00 543e 9524 33bf 645d 8d3c
000000e0: 0b44 123f 4173 16bf ac70 ccbe 07f9 2d3e
000000f0: bc62 323f 28cb f63e ec37 d53e 4372 4f3e
00000100: 094e 3dbb 7391 98be af4b 7dbf ae40 d2be
00000110: 96ba 8e3e 8b01 4dbe 8e5f c7be 6ed5 a7be
00000120: 3254 84be a1da 933e 702d 883f f059 30bd
00000130: 1e51 bb3d a7de e3be b32b 10bf a48b 07bf
00000140: 39d6 42bf de3c 0dbe 2be5 8d3f f8b3 843e
00000150: 5aab 3c3f 6cc8 1c3f 4eb8 f4bc b4bc a83e
00000160: 79ca 07bf 0e7d cebd 2802 0d3f ebc4 a1bc
00000170: cc68 fc3e 3185 dcbe 76f0 12bf 89b1 a5be
00000180: 293c 293e ac2e a4be fceb eabe 8739 453e
00000190: 9d83 a6be 6587 013f 5738 0040 3958 203f
000001a0: 5474 3a3e 1e95 2dbe f2c3 39bf 7661 8fbe
000001b0: 1ed4 22bf d987 b3be d6f2 71be 1eb7 6abe
000001c0: 1d88 ddbe 441d db3e 3c8c c2be 5617 9b3e
000001d0: 7156 b83e 7c98 88be ee55 ca3e a717 6ebe
000001e0: 63ab 653e 2732 b9be 7632 e5be bc82 98be
000001f0: 1e04 20be b80d bb3e e064 b7bf 061b a0be
00000200: 82f7 243e 8aae 8abe 83ac 973f f1dd 7e3e
00000210: 8894 613d e97e 193e e984 92bf 30cf bcbe
00000220: 3def 4cbe f67c 23be dff2 9bbf 57a4 a3be
00000230: daa0 fc3e 4756 14bf 89d7 a6bf d86f ecbe
00000240: 07da 69bd 4d29 b53d dbbf 683f dbad e3bd
00000250: e4ca 3f3f 826b 293e 9117 0bbf 97ab 3b3d
00000260: 2819 db3d 5f8c 88bd 45fc 32bd 6a6d 38be
00000270: 855b 193f b4fd 253e 25b4 8f3d aa65 a73e
00000280: 4777 0f3d f3f4 15be 3095 6bbf 06bf 25be
00000290: da31 053f c74d 90be f9d7 113f 126b 4abe
000002a0: fc50 93be 1df0 fe3b cc4d 12bf e53a bebd
000002b0: 1b9d 393f 49f7 233f 8c7c 8bbd 59a2 9f3e
000002c0: 0823 2b3d 86fb 15bf bca2 8fbf f65a f1be
000002d0: 58ca 7f3c 14ab 503e da35 c2bf e5e4 41be
000002e0: 9030 62bd b0cb b3be 4ee3 413e c9f8 a7be
000002f0: 18e0 42bf 8aff afbe c66b 5d3f 39a6 fd3d
00000300: 8093 c1bc 8c2d 093e c0d8 bf3d 50a8 0e3d
00000310: 4f23 c73e cc0b b7be 1828 e6bd 37b1 7ebe
00000320: da76 8c3e 1bf9 a6be 05bd a5bf 33d2 d93e
00000330: 0c91 353f 3d66 9ebe 3dc5 2abf b52a 243e
00000340: 0539 ffbe 5e2f d43e 8281 d73e d4d2 e33d
00000350: 2fa0 89bf 9767 90be 9f32 163f f762 16bd
00000360: 6e95 b4be 307f ca3e 331c c43e 1500 86bd
00000370: f967 923f c85a a93e cd02 b3be 48e3 df3d
00000380: fa9c 223e ef74 90bd 667c 89bf 80dc 82bd
00000390: ec90 b2be eca2 12bd 75b8 1e3f 7c24 0ebd
000003a0: cef4 013d c864 643f 84bf 613d 52bc d83e
000003b0: 7700 523d b9b3 8dbe 8fce b1bf ef13 7bbe
000003c0: ac22 0abf 5ca9 9d3e f0a2 723f 28ac 74bc
000003d0: a8b2 e3bc e499 a7be 48a9 983f 9273 07bc
000003e0: 6f19 9abe 7197 823e f321 b43e 398a 053c
000003f0: 89ab f33e 9515 e5be 45a4 e3be 4e9a cc3d

action_value.0.bias f4 [100]
0.37006393 -0.35682496 0.4171132 -0.48793617 0.4693463 -0.41917682 0.033703815 0.46245775
-0.23401845 -0.050620027 0.028739424 0.6622486 0.50161505 0.5552618 0.52721596 0.384423
-0.24881703 0.66944945 0.4566108 0.4133157 -0.3476289 0.17289668 -0.04226562 0.56819403
0.3996696 -0.21023448 0.70075566 0.02188766 -0.49116609 0.50263035 0.5895999 -0.27350613
-0.45587325 -0.40110543 -0.41873848 -0.37249935 0.45150006 -0.3089367 -0.43935397 0.6910631
0.239319 -0.29206893 0.42207408 0.30477086 0.018167447 -0.3290953 0.665099 -0.29333287
-0.33411437 0.4216192 0.0760996 -0.27553818 0.50733304 -0.012989829 0.61492264 -0.14556105
0.39975786 0.67454755 0.4945891 -0.050044727 0.19401062 -0.483689 0.48997596 0.641595
0.6290331 0.76775646 0.26737595 -0.29679078 0.4212186 0.50061965 -0.116624 -0.29114574
0.3753001 0.64113975 0.275015 0.5317362 0.66712534 0.371008 -0.015849786 0.67667824
-0.32708764 -0.12200878 0.48548648 -0.0659965 -0.58995855 -0.13344648 -0.30998972 -0.24352302
0.27720794 -0.42685115 0.2660452 0.57006884 0.5858213 0.022960218 -0.57328767 -0.21422699
-0.5926277 -0.35186815 0.65110004 0.50471413
00000000: 0579 bd3e c3b1 b6be dd8f d53e c5d2 f9be
00000010: 294e f03e 589e d6be 030d 0a3d 43c7 ec3e
00000020: 88a2 6fbe f256 4fbd f16e eb3c 2089 293f
00000030: d869 003f a325 0e3f a0f7 063f 17d3 c43e
00000040: e4c9 7ebe 0a61 2b3f e4c8 e93e 1e9e d33e
00000050: 6afc b1be d40b 313e b71e 2dbd 2a75 113f
00000060: 7ea1 cc3e b547 57be b964 333f c04d b33c
00000070: 1f7a fbbe 62ac 003f 05f0 163f ff08 8cbe
00000080: 3868 e9be b15d cdbe e464 d6be 3cb8 bebe
00000090: 042b e73e f32c 9ebe 01f3 e0be 83e9 303f
000000a0: 0a10 753e 0f8a 95be 181a d83e ed0a 9c3e
000000b0: e6d3 943c 2e7f a8be ee43 2a3f ba2f 96be
000000c0: 0a11 abbe 79de d73e 1bda 9b3d 5713 8dbe
000000d0: 94e0 013f 4bd3 54bc 926b 1d3f f50d 15be
000000e0: 10ad cc3e 26af 2c3f c83a fd3e b3fb 4cbd
000000f0: b8aa 463e 16a6 f7be 21de fa3e 923f 243f
00000100: 5008 213f b08b 443f 80e5 883e f6f4 97be
00000110: f7a9 d73e 9c28 003f 90d8 eebd 0e11 95be
00000120: 5627 c03e bc21 243f c4ce 8c3e dd1f 083f
00000130: bac8 2a3f c3f4 bd3e 69d7 81bc c93a 2d3f
00000140: 0878 a7be bddf f9bd af91 f83e 2c29 87bd
00000150: 8607 17bf 32a6 08be f9b6 9ebe 195e 79be
00000160: 33ee 8d3e 3c8c dabe 1437 883e 08f0 113f
00000170: 62f8 153f 1117 bc3c fbc2 12bf 525e 5bbe
00000180: 73b6 17bf 1028 b4be 7eae 263f f234 013f

action_value.2.weight f4 [100, 100]
0.2853476 -0.06877826 0.06363788 -0.030741736 0.16889921 -0.8841267 -0.06686929 0.34339213
-0.081666194 0.14016758 0.24929269 0.28881627 0.19419904 0.16013849 0.17125201 0.24209459
-0.4679847 0.2092559 0.30786487 -0.0004845179 -0.24068683 0.23894326 -0.32599482 0.22225077
0.17426638 0.0034455883 0.10620316 -0.46070504 -0.014242331 0.29649386 0.20077959 -1.2254729
-0.26718462 -1.5725732 -0.51926655 -1.2696564 0.441851 -1.118346 0.027714504 0.30363423
-0.15690346 0.058518026 0.20632572 0.25984937 -0.42400146 -1.8140327 0.29756296 -0.49482846
0.039741527 0.15367688 0.2107149 -0.27621245 0.26407054 -0.04565421 0.2138808 -0.74838334
0.02358067 0.38468137 0.34831685 -1.193984 0.5278403 -0.49357364 0.3786212 0.16542245
0.19512118 0.23187052 0.5994674 -0.09865196 0.17850448 0.23743816 -0.023478089 -0.05297598
0.28708753 0.33070996 -0.027735874 0.1660707 0.35949847 0.19468099 -0.67273307 0.22396617
-0.87827915 -0.2133897 0.15816239 -0.2729704 -0.777004 0.039871708 -0.25156814 -0.028047195
0.43638378 -1.688631 0.4069848 0.38539365 0.27398768 0.31344643 0.16034147 -1.5044498
-0.059856452 -0.44520718 0.16738982 0.24843001 0.21208723 -0.15891357 0.24154128 -0.11528697
0.1043072 -0.15300284 -0.008756207 0.15005891 0.045496177 -0.51226497 -0.24558738 0.26335955
0.2640194 0.3075675 0.15916702 0.16053447 -0.18527061 0.22214513 0.16223866 0.06839764
-0.1743278 0.16148281 -0.023340536 0.16404553 0.2050711 -0.5432102 0.3075852 0.114193924
-0.070581466 0.17527266 0.13279669 -0.073982686 -0.081148475 -0.12181761 -0.37684357 -0.6783811
0.19976768 -0.36893117 -0.0668122 0.2789587 0.15877405 -0.10338469 0.19144857 0.17432177
-0.25810865 -0.35006458 0.266268 0.049399786 -0.045722187 0.33271518 0.09932883 -0.22078973
0.30057314 -0.10017066 0.22000319 -0.15091799 0.16764295 0.26129627 0.17834991 -0.65855235
0.23033293 0.18697046 0.17612998 0.28907463 0.17592782 0.20677266 0.26970425 -0.043267693
0.19535398 0.31884256 -0.28379354 0.0733941 0.08619448 0.285707 0.26513922 0.22932586
0.19773959 0.2856181 0.09274178 0.10555872 -0.26627994 -0.69686013 0.26285365 -0.28619412
-0.18118358 -0.10428461 -0.76244086 -0.60445833 0.18608929 -0.6206076 0.32033616 0.30651918
0.20880015 0.08131927 0.15765557 -0.39395165 0.35937387 -0.24617353 0.31847483 0.19483002
0.14998052 -0.36259264 0.09620206 -0.36900675 0.2553544 -0.14707106 0.0323525 0.1965266
0.03700316 -1.240676 -0.30625755 0.21450448 0.14582062 0.19828872 0.12134 0.13687351
-0.25000554 0.3563269 0.22867292 0.09935913 -0.43402132 0.120331004 -0.39217702 0.24898423
0.1776317 -1.6691467 0.29104292 0.15165573 -0.046850666 0.24319662 0.213849 -0.11520229
-0.76749146 -0.0974494 -0.3512311 -0.35080233 0.20726158 -0.49374315 0.053398363 0.15077505
0.093876384 0.019026384 0.2302271 0.25592297 -0.30292657 -0.31107864 0.293806 -0.04976162
-0.06013304 0.19169326 0.12437391 -0.24573566 0.27590707 -0.19585234 0.20823959 -0.5127882
00000000: 1519 923e 9edb 8cbd 9454 823d 18d6 fbbc
00000010: eaf3 2c3e 2156 62bf c4f2 88bd 18d1 af3e
00000020: 9b40 a7bd 1788 0f3e 9546 7f3e badf 933e
00000030: 1ddc 463e 58fb 233e b05c 2f3e a5e7 773e
00000040: b19b efbe 2e47 563e 77a0 9d3e e406 feb9
00000050: 9c76 76be 8bad 743e cbe8 a6be b595 633e
00000060: e372 323e 61cf 613b 0b81 d93d 88e1 ebbe
00000070: aa58 69bc 0bce 973e 2a99 4d3e 4cdc 9cbf
00000080: 6ccc 88be 144a c9bf a7ee 04bf 1a84 a2bf
00000090: 4b3a e23e f625 8fbf 8709 e33c f275 9b3e
000000a0: 4dab 20be 99b0 6f3d 0d47 533e fa0a 853e
000000b0: b816 d9be 3932 e8bf 2c5a 983e 285a fdbe
000000c0: 03c8 223d 795d 1d3e a6c5 573e b86b 8dbe
000000d0: 4134 873e e9ff 3abd 9203 5b3e 0d96 3fbf
000000e0: 402c c13c f5f4 c43e 9656 b23e 78d4 98bf
000000f0: 8b20 073f afb5 fcbe a3da c13e 8164 293e
00000100: d9cd 473e 776f 6d3e b276 193f 0a0a cabd
00000110: e1c9 363e fd22 733e 1f55 c0bc 57fd 58bd
00000120: 23fd 923e d152 a93e 5836 e3bc 700e 2a3e
00000130: 2f10 b83e 745a 473e 3c38 2cbf 6357 653e
00000140: e7d6 60bf d482 5abe 52f5 213e c7c2 8bbe
00000150: bce9 46bf 8450 233d 8acd 80be 3bc3 e5bc
00000160: b26d df3e 1025 d8bf 5060 d03e 5152 c53e
00000170: 1d48 8c3e 0d7c a03e 8e30 243e d091 c0bf
00000180: 0a2c 75bd 32f2 e3be 3d68 2b3e 7064 7e3e
00000190: 652d 593e 3dba 22be 9956 773e 931b ecbd
000001a0: 039f d53d c7ac 1cbe 3276 0fbc 0ba9 193e
000001b0: 335a 3a3d cc23 03bf 427b 7bbe 10d7 863e
000001c0: 8d2d 873e 7d79 9d3e aefc 223e 2663 243e
000001d0: 94b7 3dbe 037a 633e e421 263e 1014 8c3d
000001e0: fd82 32be c05b 253e a734 bfbc 8dfb 273e
000001f0: 29fe 513e d30f 0bbf cf7b 9d3e 81de e93d
00000200: 048d 90bd ad7a 333e dbfb 073e 3c84 97bd
00000210: 2c31 a6bd 837b f9bd a4f1 c0be 62aa 2dbf
00000220: e68f 4c3e 8ce4 bcbe d6d4 88bd add3 8e3e
00000230: aa95 223e 5abb d3bd 180b 443e 6881 323e
00000240: d126 84be aa3b b3be 4754 883e 6e57 4a3d
00000250: 3047 3bbd a559 aa3e ea6c cb3d b416 62be
00000260: b9e4 993e 4626 cdbd 8448 613e 3f8a 1abe
00000270: 98aa 2b3e a0c8 853e 5ca1 363e e396 28bf
00000280: 65dc 6b3e 2f75 3f3e 6b5b 343e 9701 943e
00000290: 6c26 343e 36bc 533e ad16 8a3e 7739 31bd
000002a0: e00a 483e 553f a33e 634d 91be a54f 963d
000002b0: bb86 b03d 3048 923e 54c0 873e 66d4 6a3e
000002c0: 3f7c 4a3e 893c 923e 67ef bd3d 2c2f d83d
000002d0: d855 88be 6d65 32bf c194 863e 0988 92be
000002e0: 3088 39be 2b93 d5bd 532f 43bf c8bd 1abf
000002f0: 318e 3e3e 24e0 1ebf 1a03 a43e 15f0 9c3e
00000300: b5cf 553e b88a a63d 7670 213e 08b4 c9be
00000310: daff b73e ea14 7cbe 220f a33e 8581 473e
00000320: 7e94 193e bea5 b9be 9605 c53d 74ee bcbe
00000330: d0bd 823e cc99 16be 0e84 043d 453e 493e
00000340: a090 173d 79ce 9ebf cacd 9cbe 10a7 5b3e
00000350: 0052 153e 330c 4b3e 1b81 f83d 9228 0c3e
00000360: ba00 80be 7b70 b63e 3c29 6a3e cd7c cb3d
00000370: 0b38 debe 1a70 f63d 6dcb c8be b9f5 7e3e
00000380: 16e5 353e 99a6 d5bf 9403 953e a44b 1b3e
00000390: 7ce6 3fbd 8908 793e 3bfb 5a3e 2eef ebbd
000003a0: 527a 44bf 8d93 c7bd 90d4 b3be 5d9c b3be
000003b0: 613c 543e e7cb fcbe 3eb8 5a3d c664 1a3e
000003c0: 4342 c03d 38dd 9b3c a7c0 6b3e 5608 833e
000003d0: 3119 9bbe b345 9fbe bd6d 963e d7d2 4bbd
000003e0: 104e 76bd 3d4b 443e c0b7 fe3d 21a2 7bbe
000003f0: b143 8d3e 848d 48be c23c 553e 1646 03bf

action_value.2.bias f4 [100]
0.2667563 0.31252092 0.24900077 0.10135413 0.3146509 0.038079403 -0.024351396 0.00922954
-0.1779772 -0.036115758 -0.0760828 0.27134338 0.22410534 0.1907118 0.13345641 0.1809083
-0.09618697 0.20601273 0.079584904 -0.006868414 -0.12332105 0.2206548 0.2905317 -0.048686154
0.10083225 0.04308082 -0.043343227 0.01624266 0.27244043 0.033889428 0.011992364 0.23826069
0.17151414 -0.035985116 0.21172157 0.067750804 0.0037203347 0.07043689 0.14307524 0.044060294
0.23352809 -0.02256217 0.16797242 -0.116185315 -0.0031460312 0.0019361019 -0.1106591 0.058562204
-0.027793903 -0.039082114 -0.06665413 -0.053693455 -0.069536716 0.2771234 0.26094204 -0.06758874
0.04033881 0.37571108 0.14358217 0.07402467 0.04041968 0.095611356 0.0019638345 0.0017853064
0.29091725 -0.09422501 -0.025490131 0.032385156 0.1569985 0.30997288 0.24191478 0.37188956
0.298086 -0.010005356 0.06710521 -0.06903662 0.1579587 0.2559857 -0.0060572843 -0.07862971
-0.0057805306 0.00042494803 0.15930043 0.27553785 -0.034218337 0.15880115 0.009863758 -0.17226778
0.012318311 -0.020361496 0.2658769 -0.060952656 -0.06555351 0.07069973 0.24781977 0.081642464
-0.07456323 0.06791735 0.3020719 0.2684959
00000000: 4894 883e be02 a03e 0ffa 7e3e c192 cf3d
00000010: ec19 a13e 26f9 1b3d 947c c7bc 7f37 173c
00000020: a83f 36be 1eee 13bd 4dd1 9bbd 85ed 8a3e
00000030: df7b 653e f449 433e cca8 083e 0740 393e
00000040: adfd c4bd 00f5 523e 69fd a23d 6f10 e1bb
00000050: bf8f fcbd 55f3 613e 92c0 943e 226b 47bd
00000060: 2481 ce3d 8475 303d ab88 31bd 540f 853c
00000070: 507d 8b3e a4cf 0a3d 9f7b 443c 9cfa 733e
00000080: 67a1 2f3e 2165 13bd 8acd 583e efc0 8a3d
00000090: dcd0 733b 3741 903d 5182 123e 9178 343d
000000a0: fd21 6f3e 4dd4 b8bc f600 2c3e 91f2 edbd
000000b0: a52d 4ebb cdc4 fd3a 3da1 e2bd ecde 6f3d
000000c0: 0ab0 e3bc 9114 20bd f681 88bd abed 5bbd
000000d0: 4469 8ebd 1ee3 8d3e 329a 853e f76b 8abd
000000e0: 4f3a 253d 345d c03e 3407 133e 3f9a 973d
000000f0: 1b8f 253d e3cf c33d adb3 003b f100 ea3a
00000100: 1bf3 943e 0bf9 c0bd aed0 d0bc 4ca6 043d
00000110: 37c4 203e c4b4 9e3e 82b8 773e 4f68 be3e
00000120: ba9e 983e 81ed 23bc 756e 893d 1263 8dbd
00000130: edbf 213e 8f10 833e 2f7c c6bb 9d08 a1bd
00000140: 9b6a bdbb 8fcb de39 a71f 233e 4c13 8d3e
00000150: 8728 0cbd c59c 223e 9a9b 213c f766 30be
00000160: bed2 493c 27cd a6bc 0421 883e 7ea9 79bd
00000170: eb40 86bd 05cb 903d 77c4 7d3e 2a34 a73d
00000180: 9bb4 98bd 4018 8b3d 2ba9 9a3e 4b78 893e

action_value.4.weight f4 [2, 100]
-0.15115647 0.3814224 0.47406358 -0.033824444 0.45859793 -0.053725027 -0.0513069 0.0089203585
-0.5028016 0.0025849466 -0.057944138 0.40134755 0.55160695 0.42284584 0.3555868 0.295597
-0.04971138 0.49714068 0.0017896203 -0.08189948 -0.98050517 0.46671724 0.55459076 -0.29036734
0.4705412 -0.034533888 0.060424387 -0.79038244 0.33270907 -0.05825156 -0.06457436 0.606651
0.3335702 -0.0010241668 0.30678645 -0.0680527 0.0045429394 -0.034105558 0.34797516 -0.07102369
0.31698444 0.036472723 0.2875105 -0.73782593 -0.007351546 -0.010855615 -0.94846296 -0.6280644
-1.1139808 0.41692486 0.06432704 -0.0033228514 -0.97565943 0.37894353 0.48630863 -0.047687482
-0.3221765 0.39871642 0.31678435 0.4569927 -0.02994341 0.4509646 -0.33834988 -0.056000903
0.45977318 0.05370204 -0.001174226 0.45418656 0.36959714 0.4465398 0.3975728 0.4054314
0.32240024 -0.008675986 -0.005445734 -0.068096355 0.46746364 0.47781202 0.05676008 -0.0036697506
-0.04220385 -0.047326926 0.45724037 0.35727063 0.060944524 0.35889572 0.03296981 -1.0228459
-0.045913607 0.08739631 -0.024024187 0.09737004 0.0046407115 -0.07154927 0.42720488 0.43371
-0.5625132 -0.07440768 0.26275328 0.56941366 0.5853525 0.37379098 0.2935372 0.41597006
0.19233151 0.0073186825 0.032880288 0.3988575 -0.669598 -0.08328825 -0.049162656 0.34964508
0.5069282 0.35861176 0.41123405 0.34585902 -0.011578426 0.2873441 0.007978889 0.055377766
-0.6126711 0.5158167 0.5162639 0.29030344 0.5296459 -0.02938938 0.03526568 -0.48658642
0.16703638 0.10346664 0.014122558 0.53171736 0.51890177 0.08634336 0.029768143 -0.07177971
0.07962453 0.011989411 0.417978 -0.075651325 0.40494788 -0.757507 0.39936674 -0.78102547
0.045373548 0.07097119 -0.22877194 -0.43618575 -0.49828917 0.39713278 0.017427564 -0.08623554
-0.054164775 0.28313026 0.30630314 0.0046701003 -0.7382979 0.46499047 0.3727954 0.34794402
0.014644481 0.3583295 -0.8274142 0.023066174 0.32482916 0.07710132 -0.046668485 0.39710245
0.18511273 0.41487864 0.38419017 0.38887936 0.34585622 -0.0037655574 0.08676523 0.042228088
0.40457612 0.52845055 0.052581567 -0.09105635 -0.07334921 -0.0425493 0.42659116 0.09474733
0.016569877 0.013325512 0.06463244 -0.42469004 0.0021271138 -0.57416743 0.5766706 0.042069394
0.046115793 -0.084761955 0.3900817 0.35709015 -0.87399143 0.08602353 0.36479506 0.59263456
00000000: c3c8 1abe cc49 c33e 76b8 f23e 808b 0abd
00000010: 59cd ea3e c60e 5cbd 2f27 52bd b226 123c
00000020: 9bb7 00bf 3568 293b d556 6dbd 6d7d cd3e
00000030: 1d36 0d3f 407f d83e 790f b63e 7d58 973e
00000040: 299e 4bbd 3989 fe3e b191 ea3a eaba a7bd
00000050: 6302 7bbf 90f5 ee3e a9f9 0d3f 07ab 94be
00000060: c7ea f03e 6873 0dbd 907f 773d 8156 4abf
00000070: d858 aa3e 3099 6ebd 903f 84bd 7b4d 1b3f
00000080: b7c9 aa3e 563d 86ba 1d13 9d3e 375f 8bbd
00000090: f0dc 943b 45b2 0bbd cd29 b23e de74 91bd
000000a0: c94b a23e 6c64 153d 9434 933e 29e2 3cbf
000000b0: 3de5 f0bb c0db 31bc 78ce 72bf d4c8 20bf
000000c0: ec96 8ebf 2d77 d53e e5bd 833d 32c4 59bb
000000d0: d1c4 79bf e304 c23e 72fd f83e f353 43bd
000000e0: 51f4 a4be 8f24 cc3e 8f31 a23e f2fa e93e
000000f0: e24b f5bc d5e4 e63e 323c adbe 3461 65bd
00000100: 6467 eb3e acf6 5b3d 7de8 99ba 248b e83e
00000110: d63b bd3e dda0 e43e a98e cb3e b494 cf3e
00000120: a511 a53e b925 0ebc 2172 b2bb 1a76 8bbd
00000130: 6557 ef3e c7a3 f43e 427d 683d 3380 70bb
00000140: f2dd 2cbd e1d9 41bd 691b ea3e 2dec b63e
00000150: f7a0 793d 2ec1 b73e 5a0b 073d 9dec 82bf
00000160: e80f 3cbd d6fc b23d 5fce c4bc f269 c73d
00000170: 1c11 983b 6c88 92bd 99ba da3e 3d0f de3e
00000180: dd00 10bf 0e63 98bd 9987 863e 18c5 113f
00000190: a9d9 153f 8861 bf3e 824a 963e 07fa d43e
000001a0: 8df2 443e 8fd1 ef3b 7bad 063d 0d37 cc3e
000001b0: c66a 2bbf 0893 aabd c85e 49bd ae04 b33e
000001c0: 0cc6 013f f69b b73e 458d d23e 6f14 b13e
000001d0: 70b3 3dbc c41e 933e e3b9 023c ccd3 623d
000001e0: 03d8 1cbf 900c 043f df29 043f a7a2 943e
000001f0: e096 073f ffc1 f0bc bf72 103d db21 f9be
00000200: 960b 2b3e 51e6 d33d 4d62 673c a11e 083f
00000210: bfd6 043f cad4 b03d 52dc f33c 3e01 93bd
00000220: 3012 a33d 3c6f 443c 3601 d63e 15ef 9abd
00000230: 5455 cf3e fbeb 41bf cc79 cc3e 49f1 47bf
00000240: 9dd9 393d 5859 913d 3143 6abe bd53 dfbe
00000250: c21f ffbe fd54 cb3e 40c4 8e3c 429c b0bd
00000260: e2db 5dbd 73f6 903e c4d3 9c3e a407 993b
00000270: 1701 3dbf 3b13 ee3e 0adf be3e b825 b23e
00000280: 68ef 6f3c f776 b73e 6bd1 53bf 46f5 bc3c
00000290: 0250 a63e 4ce7 9d3d 7427 3fbd 0351 cb3e
000002a0: 318e 3d3e f96a d43e 93b4 c43e 321b c73e
000002b0: 1114 b13e 92c7 76bb f8b1 b13d 5cf7 2c3d
000002c0: 9a24 cf3e 8948 073f c55f 573d c07b babd
000002d0: 1c38 96bd 2d48 2ebd 286a da3e e30a c23d
000002e0: 8dbd 873c 4053 5a3c 035e 843d f970 d9be
000002f0: 0c67 0b3b a3fc 12bf afa0 133f f550 2c3d
00000300: eae3 3c3d ad97 adbd cab8 c73e 85d4 b63e
00000310: e7bd 5fbf 1b2d b03d 6bc6 ba3e e6b6 173f

action_value.4.bias f4 [2]
0.29135484 0.21232322
00000000: 762c 953e 426b 593e
