CS260R/Pts/pg_trainer_wb_metadrive_easy.pt (torch, 151633 bytes, 6 tensors)

network.action_value.0.weight f4 [100, 259]
000000 f2 51 31 b9 98 94 7c 3c ab cd 4c 3d 69 b6 32 3d
       -0.00016910562 0.015416287 0.050000828 0.04363099
000010 1f 3b aa bc d1 75 05 bd d4 f0 58 3d 8e c0 8d ba
       -0.020780144 -0.03258306 0.052964047 -0.0010814832
000020 95 e9 18 3c 28 54 59 3c d5 6e ce 3b 04 43 33 bd
       0.009333034 0.013264693 0.0062998333 -0.043765083
000030 e2 39 08 3d 2f 29 25 bd a6 f8 51 bd ab dd ef 3c
       0.033258326 -0.04032248 -0.05126252 0.029280504
000040 0c c7 29 bc a7 69 5e 3c f3 fe 1f bc 92 c9 87 bd
       -0.010362398 0.013574994 -0.0097653745 -0.06630243
000050 2c c3 b3 3c de 95 db bc 69 d9 f1 bc 9c e6 27 3d
       0.021943651 -0.02680486 -0.029522615 0.04099141
000060 d8 e2 5f bd 1f ad 2a 3c ed b7 2d 3d 39 a4 87 bd
       -0.054659694 0.010417252 0.042411733 -0.0662312
000070 69 83 b8 bb 10 88 a7 bb 3f 03 1d 3d 1c ae 38 bd
       -0.0056308997 -0.0051126555 0.038333174 -0.04508792
000080 67 11 81 bc 21 15 d6 bc 25 e9 ed bc b8 04 f3 bb
       -0.015755368 -0.026133122 -0.029041836 -0.007416334
000090 76 ce 71 bc ba 77 a6 3c 38 0c 8a 3c b7 34 56 bd
       -0.014758697 0.020320762 0.01685153 -0.052296367
0000a0 96 ed 3e 3d f1 8a 5a 3c 58 11 55 bb 67 a1 cb 3a
       0.0466133 0.01333879 -0.0032511558 0.0015535773
0000b0 e5 a4 ae bc c2 2c 0e bd 63 d0 b1 bc 33 89 44 bc
       -0.021318862 -0.034710653 -0.021705812 -0.0119956015
0000c0 28 52 c5 ba 85 73 0e bc ae 61 80 bb 20 e8 0f bd
       -0.0015054392 -0.008694534 -0.0039178943 -0.03513348
0000d0 ae c5 aa 3c 29 a0 ec bc 12 6b 2f 3d 36 9c a8 3c
       0.020846214 -0.028884964 0.04282672 0.0205823
0000e0 c5 78 4a bd 36 97 93 3c 3f 35 42 bd fb 7a 75 3c
       -0.04943158 0.018016439 -0.04741406 0.014982934
0000f0 fd 9b db bc 17 dd 80 bd 7e 05 b1 bb 92 67 60 bd
       -0.02680778 -0.062921695 -0.005402266 -0.054786272
000100 5f 0f 54 3d 64 a7 33 bd c6 9d 08 3d e1 9e 04 bd
       0.05177247 -0.043860808 0.03335359 -0.03237808
000110 84 da 0f bd 42 36 c4 3c c5 d8 d7 bc 16 86 4e bd
       -0.035120502 0.023951653 -0.026348481 -0.050420843
000120 f8 71 4a bd df 4d 90 bb 64 9c 83 3c 5c da 43 bd
       -0.049425095 -0.004403814 0.016065784 -0.047815666
000130 78 ef 04 3d c0 c2 64 3d fa 85 0e bc 60 dc b0 bc
       0.032454938 0.05584979 -0.008698935 -0.021589458
000140 8d 1e 59 bd b5 34 5d 3d 37 db 47 bd 7c 98 82 bd
       -0.05300765 0.054005343 -0.048793044 -0.0637674
000150 c2 c8 e2 3c 5a 77 f2 3c 20 ca 70 3c bf 3a 29 bd
       0.02768362 0.029597927 0.014696628 -0.04131579
000160 c7 4f 1f bc 51 ce 2d 3c 01 a8 4f bc ca d2 9f 3c
       -0.00972361 0.010608272 -0.012674333 0.019509692
000170 fe 40 60 bd 1a 43 8f bc 75 73 0d 3d e7 30 b6 bc
       -0.05474948 -0.017488051 0.034533937 -0.022240115
000180 f4 aa 54 3d 55 a6 07 3d 22 38 04 3d 5c 9d 6d bd
       0.051920846 0.03311761 0.032280095 -0.058011398
000190 19 46 1f 3d 87 9e 3a bd 30 9c 3e bc eb 96 d4 3b
       0.03888521 -0.04556134 -0.011633918 0.0064877174
0001a0 31 81 28 bd 22 9b 54 bc 7b b1 89 3c 19 cd 80 bd
       -0.04113883 -0.01297644 0.016808262 -0.06289119
0001b0 e4 5e 2f bd 71 2d fa 3c 90 cb 0d bd e3 e4 26 bd
       -0.042815104 0.030539246 -0.03461796 -0.040745627
0001c0 57 a4 68 b9 35 a4 1f 3d 07 b7 90 3c bd 82 d4 3c
       -0.00022186466 0.03897496 0.0176654 0.025941247
0001d0 48 17 03 3d ca 1c 32 3d 87 50 2f bd 99 4c 0f bc
       0.032004625 0.043484487 -0.042801406 -0.00874629
0001e0 6e 70 c0 3c a0 c2 82 bd 6c dc 2c bc 1a 10 5e bd
       0.02349111 -0.06384778 -0.0105506 -0.054214574
0001f0 d2 74 89 bd 53 76 e5 3c c0 3c e1 3b fd 9a b3 bc
       -0.06711735 0.028010523 0.006873697 -0.02192449
000200 ab 57 87 bd 8c 02 64 3d 8d 0c 13 3c 5f c4 79 bd
       -0.06608518 0.05566649 0.00897516 -0.06097829
000210 ae 3e 6f 3b e0 77 bc bc 81 e0 0f bd e9 ae a7 3c
       0.0036505866 -0.02300638 -0.035126213 0.020469146
000220 4a 9a 6e bd 31 d1 16 bd ac 2b 08 bd 56 3d 4b 3d
       -0.05825261 -0.036820594 -0.033244774 0.04961904
000230 42 b2 3b 3b d8 b3 4c 3d 50 95 03 bd e8 65 18 3d
       0.0028640185 0.0499762 -0.032124817 0.03720656
000240 40 cb 36 bd f0 20 78 bd 68 9a 33 3d f4 a2 00 bc
       -0.044627428 -0.060578287 0.043848425 -0.007851351
000250 bb 3e 14 3c f1 16 49 3d 7a 58 03 3a 94 84 36 b6
       0.009048159 0.049094144 0.00050104375 -2.7197284e-06
000260 09 b8 3a 3d 4d 62 22 3d d2 28 05 3d 83 cc 22 bd
       0.045585666 0.03964453 0.032509632 -0.03974582
000270 b2 46 88 3c 9e 03 68 3b 94 52 60 bc b7 a0 6e bc
       0.016635273 0.0035402547 -0.013691563 -0.014564685
000280 ff 0a c7 bc ce 77 0e bd f7 e7 a5 bc 69 c9 5e 3c
       -0.024297236 -0.034782223 -0.020252211 0.013597825
000290 d2 13 71 bd 09 41 af b9 91 32 f3 3b c5 b4 5f bd
       -0.058856793 -0.00033427056 0.0074217995 -0.054615755
0002a0 53 d6 a0 bb 54 21 78 3c 82 fa 05 bb 56 b1 f5 bc
       -0.004908362 0.015144665 -0.0020443504 -0.029991787
0002b0 e7 a6 a9 3c a9 30 ce 3c bd 17 bd bc 9d 16 54 bd
       0.020709468 0.025169687 -0.023082608 -0.05177938
0002c0 0c 32 52 bd 5c 08 58 3d 1d 98 a0 bc 50 e4 5b bd
       -0.05131726 0.052742347 -0.019603783 -0.053684533
0002d0 d6 c6 22 3d 11 36 54 3d 59 02 06 3d b3 44 12 bd
       0.039740406 0.051809374 0.032717083 -0.035710048
0002e0 57 2e 5a 3d 27 cc 89 3c a1 0c 0d 3d 82 77 82 3c
       0.05326685 0.01682098 0.034435872 0.015926126
0002f0 dc 62 10 3d 27 61 60 3c b1 88 ff bb 83 e6 f2 bc
       0.03525053 0.013695038 -0.0077982773 -0.029650932
000300 6b 24 3f bd 2f 64 d6 bc d9 65 60 3c 9c f9 8a bd
       -0.04666559 -0.026170818 0.013696157 -0.067858905
000310 47 bb 5b 3d e5 dd ac 3b 44 c4 db bc 18 f3 3f 3d
       0.0536454 0.0052754753 -0.026826985 0.04686269
000320 8f be b0 3c 72 c7 33 3d 56 ce 55 3c 74 96 dc 3b
       0.02157524 0.043891378 0.013049683 0.0067318026
000330 45 ae fd 3c 5c 4d aa bc 70 50 0a bd bd ba 90 3a
       0.030966887 -0.020788841 -0.033768117 0.001104198
000340 11 56 22 3d e3 ab 64 3a 34 7d 9c 3b 6c 19 3a 3d
       0.03963286 0.0008723123 0.0047756676 0.0454344
000350 fb 33 0c 3d 48 5c 30 bc f8 4d 05 3d 0b 5c 63 3c
       0.03422926 -0.010764189 0.03254506 0.013876925
000360 a0 fb 3a bd f8 e1 18 3d 71 1d c6 3c ba e0 fb bc
       -0.045650125 0.037324876 0.02418396 -0.030746806
000370 e4 10 ad 3c 46 23 08 bc cc 36 2f bd ce 6a b9 3b
       0.021126218 -0.008309191 -0.042776868 0.005658484
000380 c8 cd c0 bc 4f 7d 9c 3c f8 d5 73 bd 6d bc f5 bc
       -0.023535624 0.01910272 -0.05953023 -0.029997075
000390 f1 51 f2 bc 59 41 65 3d 37 9a 2b bd 4b e1 f0 bb
       -0.029580088 0.055970524 -0.041895118 -0.0073510758
0003a0 cd f6 52 3c 2d 12 0c 3c 2b fc 7a bc eb ae 97 3c
       0.012876225 0.008549255 -0.015318911 0.018516025
0003b0 52 96 ac 3a 64 d3 f4 bb 7b 1f 58 3d fb 19 1b 3d
       0.0013167358 -0.007471489 0.052764397 0.037866574
0003c0 0b c4 fa bc b2 e9 3c bc 4c 4c 43 bd c4 ac 1d 3d
       -0.030611059 -0.011530327 -0.047680184 0.03849484
0003d0 f4 36 ea 3c d3 62 6a 3a 00 69 20 bd 44 19 1d bd
       0.028590657 0.00089411176 -0.039162636 -0.038354173
0003e0 75 b9 55 3d 2b 62 9e bc 63 c4 d6 bc 01 e3 80 bd
       0.05217882 -0.01933392 -0.026216691 -0.062932976
0003f0 40 e8 56 bc 07 05 18 bd c9 80 7f bd 22 75 96 bc
       -0.013116896 -0.03711417 -0.06237868 -0.0183664

network.action_value.0.bias f4 [100]
000000 51 b3 63 3b d7 84 10 3d 22 77 2f 3c 7c 6c b8 bc
       0.0034744332 0.035282936 0.010709556 -0.022512667
000010 cc 90 1a bd 3b fa 2e bd d1 98 84 3b da 3e 09 bd
       -0.037735745 -0.042719107 0.0040465374 -0.033507206
000020 f9 a7 49 3d 72 d8 de 3b 9f 4d 97 bb 7a 3a 90 3d
       0.049232457 0.0068007046 -0.0046174075 0.070424035
000030 08 e5 52 bd 21 4b 1d bd ca cc 83 3d 2e 50 50 bc
       -0.051487952 -0.038401727 0.06435545 -0.012714429
000040 b3 53 14 bd 17 b8 29 bd 0b e0 b1 3d 73 67 e6 3c
       -0.036212634 -0.041435327 0.08685311 0.0281255
000050 84 00 70 bd 97 fe 19 3d 30 75 4f bd 8f cc 40 bd
       -0.05859424 0.03759631 -0.050648868 -0.047070082
000060 9d ec 79 bd 74 18 2a 3d d8 12 f0 bb ac 71 30 bd
       -0.061016668 0.041527227 -0.007326465 -0.043077156
000070 39 19 cd 3c 76 c8 6f 3d 00 c3 11 3d 9b d8 8e 3d
       0.025036441 0.058540784 0.035586357 0.06974908
000080 53 3a a2 bb a7 59 6f 3c 72 6e 09 bd 46 0f 25 bd
       -0.0049508004 0.014608777 -0.033552594 -0.04029777
000090 3b 73 db ba fa b5 15 bd 30 f0 40 3c 96 93 9c bc
       -0.0016742715 -0.0365505 0.011776015 -0.019113343
0000a0 b9 aa 84 3c 5c ab dd bb dc 50 50 bd 86 9a 00 bd
       0.016194688 -0.0067648124 -0.050858364 -0.031397365
0000b0 6d 49 42 3d 61 0d bb bc ff 9a 65 3d d3 18 b6 bc
       0.047433306 -0.022833528 0.05605602 -0.022228634
0000c0 85 c3 3b bc 8a f1 59 bb 22 3f ed 3a 90 f0 5d bc
       -0.01146019 -0.003325554 0.001810048 -0.013546124
0000d0 2e a3 cb 3c 90 dd b8 3c bf be d2 bc 90 1b 8d 3c
       0.024858084 0.022566587 -0.02572572 0.017225057
0000e0 e9 02 4f bd 5e 4b 83 bd 14 38 5e bc 63 2f ad bc
       -0.050539885 -0.064108595 -0.013563175 -0.02114076
0000f0 30 47 53 3d d4 a1 63 3d b9 a7 0f bd cd 94 68 3d
       0.05158156 0.055574253 -0.035072062 0.056782532
000100 07 60 62 bc 63 ff 77 3d cd a1 61 bc 0d 67 84 3c
       -0.01381684 0.06054629 -0.0137714865 0.01616242
000110 48 c7 6d 3c a7 fe 23 3d ea 69 09 3d 25 b7 4b 3d
       0.014512844 0.040037777 0.033548273 0.049735207
000120 d0 fa 69 3d 43 bd c3 bc dc 41 11 bd 4b 8b 49 bc
       0.05712396 -0.023893958 -0.0354632 -0.012301276
000130 5d 25 44 bd 6c 21 2f bd 20 79 4b 3d 28 18 ec bc
       -0.047887195 -0.042756483 0.04967606 -0.028820112
000140 0b 58 27 bd c1 67 3c 3d e3 fc 59 3d c4 93 0d bc
       -0.04085545 0.045997385 0.053219687 -0.008641187
000150 84 a5 2d bd 68 2c 17 bd 76 32 58 bb 45 ef 15 3d
       -0.042394176 -0.036907583 -0.0032989061 0.03660514
000160 65 5f 8e bb 62 02 c4 3c 4e b9 42 3b 51 49 83 3d
       -0.004344868 0.023926917 0.00297125 0.06410468
000170 a8 1f 6f bd 57 c9 7e 3d 04 24 60 bd a0 0c 2e 3d
       -0.0583798 0.06220373 -0.054721847 0.04249251
000180 a1 42 aa ba 5f e1 c8 3c b9 ea 8d bc 79 f8 21 3d
       -0.0012989828 0.024521528 -0.017323839 0.039543603

network.action_value.2.weight f4 [100, 100]
000000 c2 7a a1 3a 26 bd ab bd d7 49 86 bd 3b df 90 bd
       0.001231991 -0.083856866 -0.065570526 -0.07073828
000010 77 83 46 bd 8c 70 12 bd 5b 2b 8d bd ad 95 98 3d
       -0.04846522 -0.035751864 -0.06893035 0.074504234
000020 c6 2b 81 bc 61 c2 c3 3d ac 4d 39 bd f1 fb b1 3d
       -0.015767943 0.09558559 -0.04524009 0.08690632
000030 93 cd a6 bd 8d 8b f6 3c 62 86 49 bd ba 4a 37 bd
       -0.08144679 0.03009584 -0.049200423 -0.044749
000040 0d 29 29 3c 82 2f 8f 3d a7 13 91 bd 6b 48 81 bd
       0.010324729 0.06991483 -0.070838265 -0.06312641
000050 8a f9 3c bd 70 cf d0 3b 16 09 77 bd b2 07 93 3d
       -0.046136416 0.0063723847 -0.0603114 0.07179202
000060 01 31 b1 bd e8 a7 83 bd 38 05 1a bd ff f1 9e 3d
       -0.08651925 -0.0642851 -0.037602633 0.07761001
000070 81 28 ee 3c 41 b4 63 3d 14 d3 b9 3d 8f d3 75 bd
       0.029072048 0.055591825 0.09073463 -0.06001621
000080 fd fc bb bd 47 ec f4 bc 5b db 7b 3d b0 51 23 3d
       -0.09179113 -0.029897822 0.06148849 0.039872825
000090 4f df 68 3d a9 05 7c 3d 5a 70 4a bc f3 1b 4a bd
       0.05685359 0.061528835 -0.012355888 -0.04934306
0000a0 ff 2b 83 bd 83 4e 2f 3d 8f 5c 70 3d fa da 64 bd
       -0.06404876 0.042799484 0.05868202 -0.055872895
0000b0 2a e8 90 bd 8d 4a 9e bc d0 36 8b bd 1a 36 b6 bd
       -0.07075532 -0.019322658 -0.06797564 -0.08897038
0000c0 1a a1 76 3c c0 b4 3e bd 86 b9 b5 bd 82 16 9f bd
       0.015053058 -0.046559095 -0.088732764 -0.07767965
0000d0 e3 99 19 bd e4 6f ec 3c 27 a3 bb bc 8a 2b 3f 3d
       -0.037500273 0.028861947 -0.022904946 0.04667238
0000e0 0d db bc 3c ee 05 a6 bc 8d a0 82 bd 31 80 fb 3c
       0.02305367 -0.0202665 -0.06378279 0.030700775
0000f0 d3 a1 91 3d 8b d4 db 3c 08 5b 84 bd cd 2a fa 3a
       0.07110944 0.026834747 -0.06462675 0.0019086242
000100 02 34 93 3d b0 89 26 3d f0 9f 82 bd 91 a3 7f 3d
       0.07187654 0.040658653 -0.06378162 0.06241185
000110 b2 a3 66 3d 3e 62 a1 bd 71 a6 35 bc d3 d4 6a 3d
       0.056308456 -0.07880066 -0.011087046 0.05733187
000120 c7 ed 73 bd da 17 0f 3d 40 f6 85 bd 12 5e 72 3d
       -0.059552934 0.034934856 -0.06541109 0.059171744
000130 33 9b a4 3d 5e 6b dd bc f5 58 6c bd 40 ca cf 3c
       0.080374144 -0.027028736 -0.057702024 0.025364995
000140 4c e2 9d bc ce ab 2d 3d ef 8a d1 3c e4 b9 b2 3d
       -0.019272946 0.042400174 0.025578944 0.08726862
000150 97 5c 3e bc 53 3d 2b bd 4a b5 97 bc 25 97 e8 3c
       -0.011618755 -0.04180653 -0.018519063 0.028392384
000160 f3 a4 47 3d 52 7c 61 3d 93 f2 a3 3d ef 5f 8a 3d
       0.048741292 0.0550502 0.08005252 0.06756579
000170 93 bd b4 bd 86 53 d2 bb 7a de 85 bd ed 32 99 3c
       -0.08825221 -0.006418648 -0.06536575 0.018701041
000180 1c 69 a1 bc 02 f9 94 bd 63 84 41 3d 8d 65 68 3c
       -0.01970344 -0.07274057 0.047245394 0.014184368
000190 cd 5e d8 3a 28 ce b5 3d 22 dd 87 3d cd 24 ec 3c
       0.0016507745 0.08877212 0.066339746 0.028826142
0001a0 f3 02 32 3d 3d 13 b2 3d a5 4e 8d bd 60 59 22 bd
       0.043459844 0.08695076 -0.06899766 -0.039636016
0001b0 55 73 84 3d 7a 94 05 bd 4f f8 ad 3d 17 94 43 bd
       0.0646731 -0.0326123 0.08494627 -0.04774865
0001c0 87 ae b7 3c 40 f2 6c 3d 00 12 74 3d dd 3d 5f 3d
       0.022422088 0.057848215 0.05958748 0.054502357
0001d0 8a 99 6e 3d 9f 11 b7 3d ba 01 a7 bd 9a 59 22 bb
       0.058251895 0.08938908 -0.08154626 -0.0024772645
0001e0 b8 1d a3 3d 7d 93 49 3d f3 21 74 bd e3 cd 9c bd
       0.07964653 0.04921292 -0.05960269 -0.07656457
0001f0 53 a2 e8 3c cd 8b 19 3c 9a b6 b5 3b 27 ad 9e 3d
       0.028397715 0.00937171 0.0055454494 0.0774787
000200 53 5f 87 3d 6d af 8b 3d 45 e7 aa bd 1d 5e b2 bd
       0.066099785 0.06820569 -0.083448924 -0.08709357
000210 f3 69 83 3d 27 3b dd 3c 48 b6 a9 3d 0a 89 10 bd
       0.064166926 0.027005745 0.082867205 -0.03528694
000220 db 50 aa bd d7 04 72 bd 2a 54 73 bd 2a 5a 50 3d
       -0.08316203 -0.059086647 -0.059406437 0.050867237
000230 0d 7e fa 3c 6d 4e 84 bd 8a a4 10 3d 1d b9 70 bd
       0.030577684 -0.06460271 0.035313167 -0.058770288
000240 ba 43 8c bd bd 1e c8 bd dd ac 01 3d 3d 53 05 3d
       -0.06848855 -0.09771488 0.031658996 0.032550085
000250 27 ae ab 3d 67 8d 3f bb af 72 bf 3d 88 68 9c 3d
       0.08382826 -0.002922857 0.09348046 0.07637125
000260 90 bd 78 bd 9a 94 5f bb 08 08 c1 3d 63 9b 2d 3d
       -0.060727656 -0.0034115673 0.0942536 0.042384516
000270 8d 87 b0 bc 18 38 b3 3d cd 6a bc ba 68 c1 c4 3d
       -0.02154901 0.087509334 -0.0014375091 0.09607202
000280 aa 1e a6 bd 50 e3 29 3d c7 71 ab bc 48 e1 cb bd
       -0.081113175 0.041476548 -0.020928277 -0.09955078
000290 13 ea 97 3c 07 4d bb 3c 97 85 05 bd 00 e1 e5 3c
       0.018544232 0.022863878 -0.032598104 0.02806139
0002a0 0d b2 ae 3d ad 77 a9 bc 92 74 be 3d c0 8a 92 bd
       0.08530054 -0.020686949 0.09299578 -0.07155371
0002b0 47 39 c3 3c d0 2a ab 3d 5d 41 bd bd 27 00 04 3c
       0.023831023 0.08357775 -0.09240983 0.008056677
0002c0 1a 6d 7f 3d 07 f8 e4 3c 9f 12 a0 bd 18 25 a5 bd
       0.062359907 0.0279503 -0.07816052 -0.08063716
0002d0 8b 60 c3 bd f3 db 97 bd ea fb 6c bd 13 e2 ae bc
       -0.095398985 -0.07414999 -0.05785743 -0.021348035
0002e0 c0 2d 9b bd 40 72 58 3c 07 bb d6 3c 00 91 bc 3d
       -0.075770855 0.013210833 0.026212228 0.09207344
0002f0 cd 6d 5f 3c a0 01 9c 3c a7 e7 87 bd c7 08 a7 bc
       0.013637018 0.019043744 -0.06635981 -0.020389928
000300 1b e0 c5 bd da 90 33 bd 1d ad 53 bd 9a ef 46 3b
       -0.09661885 -0.043839313 -0.051678766 0.0030355216
000310 1a bb 83 bd c3 35 aa 3d 72 8f a8 3d 20 c0 b1 3c
       -0.06432171 0.083110355 0.08230485 0.021698058
000320 d0 27 7f bd 9a 08 bf 3d e7 00 d9 3c 88 fb bf bd
       -0.062293828 0.093278125 0.026489688 -0.09374148
000330 47 75 94 bc 0d 7d 3d 3c e3 db bb 3d 33 97 4d bb
       -0.018122328 0.011565459 0.091727994 -0.003137064
000340 8f 34 30 bd ed 0d 72 3d 23 5f 05 bd 13 5f 1b bc
       -0.043018874 0.059095312 -0.032561433 -0.009483117
000350 aa 7e 47 3d 53 9d b7 bd 33 eb b7 3c 23 f1 1f bd
       0.04870478 -0.08965554 0.022451019 -0.039048325
000360 27 b2 70 3c 10 39 41 bd 09 e5 00 3c 48 46 ce bd
       0.014690912 -0.04717356 0.007867106 -0.10071999
000370 33 a3 cf bb 8d e1 38 3c fd ed 9c 3d 8f ec 35 3d
       -0.0063365935 0.011284244 0.0766258 0.044415053
000380 83 7b 0a 3d cd 61 07 3c 8c 5d b6 3c 78 78 be bd
       0.033809196 0.008263064 0.022261404 -0.09300321
000390 c3 4d 7d bd 2a cf 66 3d 4a 44 1e 3d 10 c2 81 bc
       -0.061841737 0.05634991 0.038639344 -0.015839607
0003a0 99 96 b1 3d 5d 54 6a bd 1a 4e d0 bd 1a e4 75 bd
       0.08671302 -0.05720936 -0.10171147 -0.060031988
0003b0 f3 83 68 3d ab f1 95 3c b8 d2 98 bd fa de 65 3d
       0.05676646 0.018303713 -0.074620664 0.05612085
0003c0 ef 32 65 bb 0b 4e c7 bd 2b 80 0c 3c 9d c0 c7 3d
       -0.0034972986 -0.097316824 0.0085754795 0.09753535
0003d0 70 cc 23 3d 4f c1 be 3d 47 f1 fa 3c 5a a7 8a 3c
       0.03998989 0.093142144 0.030632628 0.016925503
0003e0 6d 94 91 3c bb fe 91 bd 87 1f b4 bd 13 4e ed bc
       0.01777097 -0.07128664 -0.08795076 -0.028967893
0003f0 37 03 9e bd 6f cb a2 3d 37 4b 9d bd 93 c9 53 3d
       -0.07715457 0.07948958 -0.07680362 0.051705908

network.action_value.2.bias f4 [100]
000000 a8 c6 94 3d f5 8d c5 3d 0f 51 72 bd c8 bd 6b 3b
       0.07264453 0.09646217 -0.059159335 0.0035971273
000010 43 7e 16 3c 91 f9 91 bd 7d 61 91 3d b8 77 c7 3c
       0.009185377 -0.07127679 0.070986725 0.024349079
000020 d8 87 a4 3d cd 26 9c bb b8 08 9b 3d 97 72 6a 3d
       0.08033723 -0.0047653676 0.07570022 0.057238188
000030 b4 c2 80 3c 74 5a c9 3d 50 4b e4 3c 87 ed 06 bd
       0.015717842 0.09831706 0.027867943 -0.032941367
000040 51 82 8c bd 6c 0f 95 bd 74 4b af 3b 45 d3 3b 3d
       -0.068607934 -0.07278332 0.005349571 0.04585578
000050 4f c7 88 3d fb 6c b6 bd 9c fc d5 bd c8 64 b2 3d
       0.0667864 -0.08907505 -0.10448572 0.08710629
000060 5f d3 99 bd ab 46 8d bc f1 3f 8a bd bf 21 c7 bc
       -0.07511019 -0.017245611 -0.06750477 -0.024308084
000070 c0 26 29 bd 69 3e 95 3c eb 82 75 3d d3 98 9e 3d
       -0.04129672 0.018218236 0.059939306 0.07743993
000080 87 e6 14 bd f7 8e d5 3c 3f 43 a8 bd 3e d0 55 bd
       -0.03635266 0.026069148 -0.08215951 -0.05220055
000090 c7 b2 e0 bc 17 5f da bd 89 52 db 3a 09 f1 c9 3c
       -0.027428998 -0.10662668 0.0016732971 0.024651067
0000a0 ef 3a d3 3d c3 fd 67 3d dd 76 85 3d 91 d6 c2 3d
       0.10313975 0.05663849 0.06516812 0.095135815
0000b0 33 03 42 bb f6 b5 6f 3c 79 36 0d 3d 2f f6 8f 3d
       -0.0029603958 0.014630785 0.034475777 0.07029378
0000c0 c5 58 b8 bd 92 02 a7 bd 47 57 f6 3c b8 97 ba bd
       -0.090013064 -0.08154787 0.030070914 -0.09110969
0000d0 18 f5 ad bd a6 a0 bb 3c b3 a1 e3 bb fd e7 07 bd
       -0.084940135 0.022903752 -0.0069467663 -0.033180226
0000e0 a1 4c b3 3d b9 1a f5 3d f5 78 84 bd be 29 0e bc
       0.0875485 0.119679876 -0.06468383 -0.008676944
0000f0 0d 7f 3c 3c 20 15 d6 bc 13 fe 1a 3d 67 db 1d 3b
       0.011504901 -0.02613312 0.03783996 0.0024087073
000100 fa 23 f5 bc 82 ea be bd 3f 95 a1 bd ab 7f 3a bd
       -0.029924382 -0.093220726 -0.078897946 -0.04553191
000110 e2 7c 8d 3d d9 db 78 bd 3b aa aa bd 3a ee c4 bc
       0.06908585 -0.060756538 -0.0833325 -0.024039377
000120 0c e3 ae 3d 0a e8 37 3d 30 e1 d0 bc ba ba 5e bd
       0.085393995 0.044899024 -0.025498003 -0.054377295
000130 a9 dc 68 bd 4a ad 9d bd ad a5 2b 3d 0e 8e d6 bb
       -0.056851063 -0.07699068 0.041906048 -0.006547696
000140 ed 5f ac 3a 73 7f 52 bd e7 df f5 3b 33 7d 90 3d
       0.0013151147 -0.051391076 0.007503498 0.0705513
000150 99 8e 2a 3d ad 5d ab bd 7b 8a b7 3d 65 50 94 3d
       0.041639898 -0.083674766 0.0896196 0.072418965
000160 94 63 82 bd c7 fd 98 bd 50 53 b2 3d 51 b1 3e 3d
       -0.06366649 -0.07470279 0.08707297 0.04655582
000170 de 3c 11 3c 09 84 0f bd 4f 94 58 3d d2 c9 a8 3d
       0.0088646095 -0.035038028 0.052875813 0.08241619
000180 73 23 50 bd 94 0c 5c 3d 50 7e c9 bd 33 8b 1d 3b
       -0.050815057 0.053722933 -0.09838545 0.0024039268

network.action_value.4.weight f4 [9, 100]
000000 3c 18 cc bc cd ec b1 b9 f8 73 fc bc 55 e7 b6 bc
       -0.0249139 -0.000339365 -0.030817017 -0.022327105
000010 45 a5 5a 3d f4 a7 91 bd 3a 6f 41 3d 8a 53 ef bd
       0.05338027 -0.07112113 0.047225215 -0.11685856
000020 67 39 87 3c 03 e9 9a 3d 7f 8e 84 bd 27 f6 0a 3d
       0.016506864 0.07563975 -0.064724915 0.033926155
000030 14 e0 94 bd 6b 9e 8c bd f3 c5 93 3d 47 23 1f bd
       -0.07269302 -0.06866153 0.0721549 -0.038852002
000040 91 7c c0 3c f1 fb 2e 3d 15 a2 53 bb 3c c7 02 bd
       0.023496898 0.04272074 -0.0032292653 -0.031928286
000050 45 81 7d bc 52 bf 82 3d 9d 8f 8a 3d ed b1 b0 bd
       -0.015472715 0.06384148 0.06765673 -0.08627687
000060 5e 1b 60 bc a8 b0 33 bd 85 cc 3f 3d ad 47 75 bd
       -0.0136784 -0.043869644 0.046825904 -0.05988281
000070 d2 8d e5 bc ee dd d9 bd 13 ea 19 3d 09 29 0d bd
       -0.028021727 -0.10638033 0.037576746 -0.034462962
000080 83 f9 10 3d c6 31 cd bd 33 8f 2f 3a c1 20 8e 3b
       0.035394203 -0.10019259 0.00066970586 0.0043374007
000090 0e 66 c8 3c e9 31 22 bc ee 5b fa bc 3d 61 8a bc
       0.024462726 -0.009899595 -0.030561414 -0.01689207
0000a0 b5 fd aa bd 7f fe 04 3d 6a 92 91 bd c9 c8 24 bc
       -0.08349172 0.03246927 -0.071080044 -0.010057637
0000b0 3d 26 4f 3d 6f 9a 88 3d 28 de 95 bd 5f 46 f0 3c
       0.050573576 0.06670081 -0.073177636 0.02933043
0000c0 2c 54 31 bd 49 0e 9f bc e8 04 b8 3d 9c 33 3d bd
       -0.043293163 -0.019415991 0.08985311 -0.046191797
0000d0 56 66 e0 3c db 00 63 bd 08 67 c1 bd aa 75 10 bd
       0.027392548 -0.055420738 -0.0944348 -0.035268463
0000e0 9c b6 76 bb ad 4e ee bc a0 1c 0d 3d c4 9f 95 3d
       -0.0037645465 -0.02909025 0.034451127 0.073058635
0000f0 40 52 4c 3c 30 a8 5d 3d f3 23 2d bd 5a 1c 48 3c
       0.012470782 0.054115474 -0.042270612 0.012213791
000100 33 b9 ff 3a e3 ef 32 bd e7 cb 20 3d b3 59 ed bb
       0.001951015 -0.043685805 0.039256956 -0.007243359
000110 a8 73 64 bd 36 37 7b 3d 69 9c df bd e0 5f da 3c
       -0.05577436 0.06133195 -0.10918505 0.026657045
000120 05 15 c8 bd 9a b1 f5 3b 23 ab 5b bd 5a ac 7c 3c
       -0.09769634 0.0074979784 -0.053630006 0.015421951
000130 d5 c3 a4 3d 20 ff 11 bd d6 d2 32 bd 65 b7 a9 bd
       0.080451645 -0.035643697 -0.0436581 -0.08286933
000140 51 6e 8a 3d 50 9a 6f bd 53 b9 93 bd 0a bc 86 3d
       0.067593224 -0.058496773 -0.07213082 0.06578834
000150 71 c5 b1 3d 73 c9 4c 3d f5 5a 8e 3d 74 75 7f 3d
       0.08680237 0.049996804 0.069509424 0.06236787
000160 0a 49 8f bd 07 19 11 3d 9c fe 94 bd bc 95 27 3c
       -0.06996353 0.03542426 -0.072751254 0.010228571
000170 c8 2b b5 bd b5 8a 45 3d cd f4 8b bd bb 5f 8f bd
       -0.08846241 0.048227984 -0.068338014 -0.07000681
000180 d2 e0 99 ba 10 cb a8 3c f2 07 b9 3d 77 2d 43 3d
       -0.0011739975 0.02060464 0.090347186 0.04765078
000190 d5 85 a9 3c 6d 56 d3 3c 45 d4 b4 3d be 59 bb bd
       0.020693699 0.025798047 0.0882955 -0.09147976
0001a0 35 85 a5 bb af 24 53 3d 7f 6d f5 3c 41 6a a9 bd
       -0.00505128 0.051548656 0.029959438 -0.082722194
0001b0 c3 ae c5 bd af dc 95 3d 1a d3 8e 3b d7 61 31 bd
       -0.09652474 0.07317483 0.0043586614 -0.043306198
0001c0 89 fa eb bb 3f 29 9a 3d 66 11 ed 39 0d 2c 9a 3d
       -0.007201497 0.07527398 0.00045217125 0.07527933
0001d0 3a 00 b1 3c 5d 88 c8 bd 75 e9 58 bd 59 8c 44 3d
       0.021606553 -0.09791634 -0.052957017 0.04798541
0001e0 f4 00 2f 3d e0 ae ad 3d 29 48 b2 3d c1 9e 55 3b
       0.04272552 0.084806204 0.0870517 0.0032595845
0001f0 c4 fb 2a 3d 79 90 1c bd 53 cd b6 3d 17 ea a3 3c
       0.04174401 -0.038223717 0.08925881 0.020009084
000200 7b d8 74 3d 41 62 93 bd d5 e0 d7 3c 44 53 06 bb
       0.059776764 -0.07196475 0.026352325 -0.0020496408
000210 32 ae 15 bd 3d cc db 3b 43 46 a6 bd d4 10 ba bc
       -0.03654308 0.0067076967 -0.0811887 -0.022713102
000220 fe 0a a5 bd f5 75 81 bd 59 d9 09 bd 7f af f0 bc
       -0.08058737 -0.06321327 -0.033654545 -0.029380558
000230 21 77 59 bd d5 bb b2 bc d3 71 5d bd b7 66 74 bd
       -0.053092126 -0.02181808 -0.05406363 -0.05966827
000240 ab 62 95 3d fb 1a d8 bd 7e 66 d7 bd ad da 3d bd
       0.0729421 -0.10552021 -0.10517596 -0.046351124
000250 83 a4 4e 3d 78 96 8f bc 1a e8 9c 3d 73 75 8a 3d
       0.05044986 -0.017527804 0.07661457 0.06760683
000260 70 86 da bc 1e 41 b7 3d c2 1f 17 3d 71 bb ea b9
       -0.026675433 0.08947967 0.03689552 -0.00044771613
000270 87 aa 4c bc 1d 30 29 3d da 96 80 3d bd 3a d2 bc
       -0.012491829 0.04130565 0.06278773 -0.025662774
000280 6a e6 74 3d ea e3 22 bd 0b 86 92 bd 7f eb b5 3d
       0.059790052 -0.039768137 -0.07154473 0.08882808
000290 a7 0a 38 bd b3 56 14 3d ad 71 e5 bc d3 f1 80 3d
       -0.044932034 0.036215495 -0.028008306 0.06296124
0002a0 65 14 6d bd 8f 76 dd 3c ef 61 b6 bd 6d 6f 3f 3d
       -0.057880778 0.027034072 -0.08905398 0.046737123
0002b0 5c 3b e6 bd 6d 82 b2 3c c0 4d d3 bd 97 a0 64 bd
       -0.11241791 0.021790707 -0.10317564 -0.055817213
0002c0 3b cb f7 3c 2b 6e ae bd 3d 68 91 bd 79 71 64 3d
       0.030248275 -0.085171066 -0.0709996 0.05577228
0002d0 60 b8 22 3a ca b8 65 bd 57 cc 08 bd c4 e1 4e bd
       0.00062072836 -0.05608443 -0.033398 -0.050508276
0002e0 f3 f1 9e 3d b2 0d a9 bd db d4 9d bd b7 5e 37 3a
       0.07760992 -0.08254565 -0.077066146 0.00069950096
0002f0 94 10 2b 3d 1a 1f d4 bc 33 af 14 bd 9c 29 b2 bd
       0.041763857 -0.025893737 -0.036299895 -0.086993426
000300 c0 22 90 3d 89 a9 a1 bd dd e7 da bb bc a6 b3 3c
       0.07037878 -0.078936644 -0.0066804723 0.021930091
000310 2c c2 b7 3d 3a 42 66 bd cb fb b3 bd 9a 19 b1 bc
       0.08972582 -0.056215502 -0.0878826 -0.021618653
000320 d6 ec 71 3d 6a 23 22 bd 74 1f 79 bd de a1 43 bb
       0.059063755 -0.039584555 -0.06082101 -0.002985112
000330 23 e9 f7 bc 13 31 0a 3d 22 67 0e 3d 3b f0 07 bd
       -0.030262535 0.033738207 0.034766324 -0.033188086
000340 da 6a 52 bd eb 50 a8 bd 2d 61 a0 bd 0d d8 99 bd
       -0.051371433 -0.08218559 -0.07831035 -0.075119115
000350 07 aa 0b bd 78 16 64 bd bf 2b 1b 3d 97 69 2b bd
       -0.034097698 -0.05568549 0.037883516 -0.041848745
000360 57 0e 93 bd d1 48 47 bd d3 98 f1 bc de 88 bc 3d
       -0.071804695 -0.048653428 -0.029491818 0.09205793
000370 8e d9 a2 3d df af a0 3d f7 ab 39 3c d9 52 ac bd
       0.079516515 0.07846045 0.0113325035 -0.084142394
000380 25 b9 11 3d ed 4c e0 3c 42 b9 0d 3d a4 d3 0a 3d
       0.03557696 0.027380431 0.034600504 0.033893242
000390 81 34 2c 3d 9f 0e 15 ba 6b 30 59 3d 67 d0 4f bd
       0.04204226 -0.00056860776 0.05302469 -0.050735857
0003a0 a2 e3 aa bd b7 34 87 3b 73 1b 8b 3c e1 09 0a bc
       -0.08344199 0.004126157 0.016980862 -0.008425207
0003b0 98 ea 02 3d 21 4c aa 3d 9e 76 3d 3b 59 27 b1 3c
       0.031962007 0.08315302 0.0028909813 0.021625208
0003c0 d2 24 71 bd 9b 15 ee bc 04 02 df bc 53 c1 f5 3c
       -0.058873005 -0.029063037 -0.02722264 0.02999941
0003d0 83 b8 40 bd ad e0 c7 bd a3 17 57 3d 8c 9d 4d bc
       -0.047050964 -0.097596504 0.052512776 -0.012549769
0003e0 c1 a9 57 bd 32 7a 27 bc 33 e3 9f ba bc 85 2f bd
       -0.052652124 -0.010222005 -0.0012198448 -0.04285215
0003f0 af b0 21 3d c1 66 8f 3d ef 31 d0 bc c1 a4 57 bd
       0.03947514 0.070020206 -0.025414435 -0.052647356

network.action_value.4.bias f4 [9]
000000 14 a0 e2 bd 93 17 11 3d 8d 27 86 3d 6e 58 82 3c
       -0.11065689 0.035422873 0.065505125 0.015911307
000010 ba b9 0e 3c 97 0b d6 bc e8 99 77 3d 67 6a 9c 3c
       0.008711273 -0.026128573 0.06044951 0.019093705
000020 1b 78 95 3d
       0.07298299
