CS260R/Pts/pg_trainer_wb_metadrive_hard.pt (torch, 158097 bytes, 6 tensors)

network.action_value.0.weight f4 [100, 259]
0	0xbcfa031b	-0.030519059
1	0x3d4c2ef8	0.04984948
2	0x3becd7f5	0.0072278925
3	0xbc82c129	-0.015961247
4	0x3d416752	0.047217675
5	0xbb16a117	-0.00229842
6	0x3d4802d0	0.048830807
7	0x3c8a0852	0.01684967
8	0xbc4126a6	-0.011789
9	0x3d795caa	0.060879387
10	0xbd0585d5	-0.032598335
11	0x3d62e379	0.055392716
12	0x3c10a305	0.008827929
13	0xbc759f74	-0.01499163
14	0x3b1ceccd	0.0023944855
15	0xbd7102a8	-0.058840424
16	0x3d62972b	0.055319946
17	0xbc513d3e	-0.012770949
18	0x3d7726cb	0.06033973
19	0xbd04954b	-0.03236894
20	0x3cf14960	0.029453933
21	0xbd648d60	-0.05579889
22	0x3d72a71b	0.059241395
23	0xbd0cca6e	-0.03437274
24	0x3d55716f	0.05211013
25	0x3d0239b7	0.031793322
26	0xbd6c594b	-0.057702344
27	0xbd6551de	-0.055986278
28	0xbcbda7d1	-0.02315131
29	0xbd7159e5	-0.05892362
30	0x3cc90cfe	0.024542328
31	0xbca84176	-0.020539027
32	0x3cf3e72a	0.029773314
33	0x3d2fd772	0.042930074
34	0xbd198777	-0.037482705
35	0x3cb43d6e	0.022001948
36	0x3b8874ca	0.004164313
37	0xbd32a804	-0.043617263
38	0xbd49e42c	-0.049289867
39	0x3d1505c4	0.03638245
40	0xbc8e8d14	-0.017401256
41	0x3d0f2304	0.034945503
42	0x3c120290	0.008911744
43	0xbd120d48	-0.035657197
44	0x3c4867dd	0.012231794
45	0xbc731f39	-0.014838987
46	0xbba2de98	-0.004970383
47	0xbc8cfdb9	-0.017210828
48	0x3b585a2b	0.0033012729
49	0xbc6288c1	-0.01382655
50	0xbbcbbb1b	-0.006217373
51	0xbb730667	-0.0037082674
52	0x3d10cad0	0.035349667
53	0x3cbf184a	0.023327012
54	0x3c04765b	0.008084859
55	0xbd3c2c6c	-0.0459408
56	0xbd6a731c	-0.057238683
57	0x3d42a108	0.047516853
58	0xbccb2d97	-0.024802012
59	0xbcaf5462	-0.021402542
60	0x3ce0c9cd	0.027439976
61	0x3a4c9ff5	0.0007805818
62	0xbd5b80c7	-0.05358961
63	0xbd5c326d	-0.053759027
64	0x3d287c22	0.041134007
65	0x3ceb35f2	0.028712247
66	0xbbe3d0f6	-0.0069524003
67	0xbb82776f	-0.0039815228
68	0x3ac62d9a	0.0015119791
69	0x3cf5eecd	0.030021096
70	0xba785615	-0.00094732764
71	0x3d2b41a7	0.041810658
72	0xbd03abec	-0.03214638
73	0xbd72780f	-0.059196528
74	0xbcc8d610	-0.024516135
75	0xbd5efda9	-0.054441128
76	0xbd5e2db2	-0.054242797
77	0x3ca4740e	0.02007487
78	0xbce57b54	-0.028012909
79	0xbcf8b257	-0.030358477
80	0x3d7db373	0.061938714
81	0xbbd62aff	-0.0065358873
82	0x3c85c341	0.016328456
83	0xbd493057	-0.049118366
84	0xbd6b2504	-0.057408348
85	0x3d6e505e	0.058182113
86	0xbd578100	-0.05261326
87	0x3cdcbdb3	0.026945924
88	0xbc7129cf	-0.014719441
89	0x3d7cbf48	0.061705858
90	0x3d120475	0.03564878
91	0x3c9d8820	0.019229949
92	0xbcdd67b8	-0.027026996
93	0x3cc1b608	0.02364637
94	0xbd7b48b6	-0.06134864
95	0xbccb9d1c	-0.024855189
96	0xbb8730de	-0.0041256985
97	0x3d38fa9d	0.04516088
98	0xbd0b28b9	-0.033974383
99	0xbd59971f	-0.053122636
100	0x3bd9d7e0	0.0066480488
101	0xbc05749f	-0.00814548
102	0x3d745ecf	0.05966073
103	0x3b97f688	0.004637543
104	0x3d5ecc39	0.05439398
105	0xbd221556	-0.03957113
106	0xbd1dfeb5	-0.038572986
107	0x3d4fd608	0.050741225
108	0x3cd7933d	0.026315326
109	0xbd717714	-0.058951452
110	0x3d5339a0	0.051568627
111	0xbd24f08a	-0.04026846
112	0xbbf3cf7a	-0.0074405046
113	0xbd042bd6	-0.032268368
114	0x3cdc9da7	0.026930643
115	0x3c0441aa	0.008072296
116	0xbd423b3d	-0.047419775
117	0xbccac96d	-0.02475425
118	0xbcecc859	-0.028904127
119	0x3d37d5d5	0.04488166
120	0x3ca3c971	0.019993516
121	0x3d45f96e	0.048333578
122	0xbbebd6d6	-0.0071972413
123	0x3a8cd918	0.0010745851
124	0x3cea4f9b	0.028602412
125	0x3cd9fa51	0.026608618
126	0xbb8c009c	-0.0042725336
127	0x3d7c3bf3	0.06158061
128	0xbd5fe756	-0.05466398
129	0x3cc24b19	0.02371745
130	0xbb9f8bc1	-0.004868955
131	0x3ba13ec6	0.0049208133
132	0x3b04f466	0.0020287274
133	0x3d04740e	0.03233724
134	0x3d64da81	0.055872444
135	0xbd1c2ce8	-0.038128763
136	0xbd03ebb8	-0.03220722
137	0xbd510114	-0.05102642
138	0x3cb0dbbc	0.021589153
139	0xbd78039e	-0.060550325
140	0xbd34fba3	-0.044185292
141	0xbd6153fc	-0.055011734
142	0xbd397b9a	-0.04528389
143	0x3d7080c8	0.058716565
144	0x3d4407d8	0.047859043
145	0xbc8e9ec2	-0.017409686
146	0xbd21cb15	-0.039500315
147	0x3b6f4d78	0.003651468
148	0xbce4e986	-0.027943384
149	0xb9adefdb	-0.00033175838
150	0xbcb35029	-0.02188881
151	0x3d794579	0.06085727
152	0xbd1643e6	-0.036685847
153	0x3d7ae5b0	0.061254203
154	0x3b61d0e4	0.0034456784
155	0xbc0485c4	-0.008088533
156	0xbcf31ff4	-0.029678322
157	0x3d27b5bb	0.040944796
158	0x3d6345bc	0.055486426
159	0xbd163b22	-0.036677487
160	0x3c0f38fb	0.008741613
161	0x3d202f5e	0.039107673
162	0x3c2ebb1b	0.010664727
163	0xbca6ba1c	-0.020352416
164	0x3d54b8ab	0.051933926
165	0xbd044f87	-0.032302406
166	0xbcca424b	-0.024689814
167	0x3cb7cfae	0.022437897
168	0x3d58aa39	0.052896712
169	0x3d50ffee	0.051025324
170	0x3d61ecae	0.055157356
171	0xbc360c91	-0.0111113945
172	0x3c908cdb	0.01764529
173	0x3a9e4bff	0.0012077092
174	0x3d6b7a22	0.05748952
175	0x3d40b0d1	0.047043625
176	0x3c5af03d	0.013362941
177	0xbd3ab187	-0.04557946
178	0xbd2e73fb	-0.042591076
179	0xbd13d571	-0.036092225
180	0x3d3f05a9	0.046636257
181	0xbd25f865	-0.04052009
182	0x3c69c242	0.014267506
183	0xbd151b64	-0.036403075
184	0xbd567968	-0.052361876
185	0x3c4d299f	0.01252213
186	0x3d2677d7	0.040641632
187	0xbd42190c	-0.047387168
188	0xbd114882	-0.03546954
189	0x3d0f338b	0.034961265
190	0x3d7cdb44	0.061732545
191	0x3a6fce57	0.00091478735
192	0x3d34e3e1	0.044162635
193	0xbb9ead7d	-0.0048424588
194	0x3c9b3a1b	0.018948605
195	0xbc0b54dd	-0.00850412
196	0x3d4c880b	0.04993443
197	0x3cf52488	0.029924646
198	0xbd29288d	-0.041298438
199	0xbd430adc	-0.04761778
200	0xbc4144d9	-0.0117962
201	0x3d67aeb3	0.05656309
202	0xbcb290b7	-0.021797521
203	0x3cb52204	0.022110946
204	0x3c1a3466	0.009411907
205	0x3d2daa49	0.042398725
206	0x3b85fc2c	0.004088899
207	0xbd6caef9	-0.057784054
208	0xbce9b351	-0.028527888
209	0xbc545398	-0.012959383
210	0x3baa157e	0.0051905503
211	0x3cdf3a4f	0.027249483
212	0x3c48a95b	0.012247409
213	0xbd706133	-0.058686446
214	0x3b4e887b	0.0031514454
215	0x3d07886b	0.033089083
216	0xbc823d06	-0.015898239
217	0xbd084de6	-0.033277415
218	0xbcae2fbf	-0.021263001
219	0xbd666d36	-0.056256495
220	0xbd624228	-0.055238873
221	0x3d2dc269	0.042421732
222	0xbd227c79	-0.039669488
223	0xbcd4402d	-0.025909508
224	0xbca18c07	-0.01972009
225	0xbd7a8a0f	-0.06116682
226	0xbc1a9782	-0.009435536
227	0x3c9f8458	0.019472286
228	0xbd33b5a1	-0.043874387
229	0xbd01136d	-0.031512666
230	0x3d3be5a0	0.045873284
231	0xbd5e5392	-0.054278918
232	0xbc974128	-0.018463686
233	0xbcc79926	-0.024365019
234	0x3cc70784	0.024295576
235	0xbd0ff1c7	-0.035142686
236	0xbd3c86d1	-0.04602701
237	0xbd76255a	-0.060094215
238	0xbcb89e41	-0.022536399
239	0xbd0553a2	-0.03255046
240	0x3d0b6940	0.03403592
241	0xbd1c67c7	-0.038184907
242	0xbd034a7f	-0.032053467
243	0xbc86776b	-0.016414365
244	0xbd58daf6	-0.052943192
245	0x3d55e199	0.0522171
246	0xbcf38387	-0.029725803
247	0xbd797d06	-0.060910247
248	0xbd35811e	-0.04431259
249	0x3d76c77b	0.060248833
250	0xbd6a72cc	-0.057238385
251	0x3d3b141f	0.045673486
252	0xbc039c39	-0.008032852
253	0xbd2f9241	-0.042864088
254	0x3d7a55bc	0.06111692
255	0xbd739f5c	-0.05947815

network.action_value.0.bias f4 [100]
0	0x3d1b6584	0.03793861
1	0x3beef51c	0.007292403
2	0x3d88b48c	0.066750616
3	0xbb32d2a3	-0.0027286194
4	0x3c8ef0c2	0.017448787
5	0xbabcad8f	-0.0014394986
6	0xb9778cd9	-0.00023608225
7	0x3d5e3d0d	0.05425744
8	0xbcf657b6	-0.03007112
9	0x3c71fe4a	0.0147701
10	0x3a479cab	0.0007614593
11	0x3bf084fc	0.0073400717
12	0x3bbabd25	0.0056988173
13	0x3cdce843	0.02696622
14	0x3baa221b	0.005192054
15	0x3d5fe534	0.054661945
16	0xbd51bf99	-0.051208112
17	0xbca7026a	-0.020386893
18	0xbccff9bf	-0.025387643
19	0xba38eaef	-0.0007054051
20	0xbd196835	-0.037452895
21	0x3cc659ab	0.024212679
22	0x3d2b389e	0.04180204
23	0x3d1c8a78	0.03821799
24	0xba0c6f46	-0.0005357157
25	0xbb3bf207	-0.0028678195
26	0xbbed2660	-0.0072372407
27	0x3cc309b1	0.023808332
28	0x3b4fda75	0.0031715904
29	0xbc3c1ce6	-0.011481499
30	0x3c09740b	0.008389483
31	0x3cd6936b	0.026193341
32	0x3cfa7bf6	0.030576687
33	0xbb91f612	-0.0044543827
34	0xbd3be6d2	-0.045874424
35	0x3ce72c0b	0.028219244
36	0x3c2aa6a5	0.010415708
37	0x3b25f626	0.0025323718
38	0x3d76e249	0.060274396
39	0xbd1d37be	-0.038383238
40	0xbbe7afdc	-0.0070705246
41	0xbc539d19	-0.012915873
42	0x3c8c7e5c	0.017150097
43	0x3d038e89	0.032118354
44	0x3bd5d4aa	0.0065255957
45	0x3ce63fdd	0.028106624
46	0xbd11cfd0	-0.035598576
47	0xbd20e79c	-0.03928338
48	0x3cfeaa22	0.031086985
49	0xbd123108	-0.03569129
50	0xbd086a85	-0.03330471
51	0xba7bcce7	-0.0009605423
52	0xbd39fa98	-0.045405
53	0x3c094124	0.008377347
54	0xbce23ba4	-0.02761633
55	0xbd04754b	-0.03233842
56	0xbd668729	-0.056281243
57	0xbd3b0018	-0.045654386
58	0x3b3dfc91	0.0028989653
59	0xbd5ffd1d	-0.054684747
60	0x3c2a55c6	0.010396427
61	0xbc36f349	-0.011166402
62	0xbd437204	-0.047716156
63	0x3d1d8e47	0.038465764
64	0xbd0f578b	-0.034995597
65	0x3d612b02	0.054972656
66	0xbceda91c	-0.029011302
67	0x3c333b6f	0.010939463
68	0x3d26d5fe	0.040731423
69	0xbd1325ec	-0.035924837
70	0xbd271158	-0.040788025
71	0xba430c10	-0.0007440457
72	0xbb754072	-0.0037422446
73	0xbc9eb82d	-0.019374931
74	0xbac5896a	-0.001507086
75	0xbc586d96	-0.013209721
76	0xbd66daf0	-0.05636114
77	0xbd6344aa	-0.055485405
78	0xbcd1b9a8	-0.025601223
79	0x3d492720	0.049109578
80	0xbd7bd063	-0.06147803
81	0x3d2d15eb	0.04225723
82	0x3d289d82	0.041165836
83	0x3cfa267b	0.030535927
84	0xbd85cf40	-0.065336704
85	0xbd635dbc	-0.055509314
86	0x3d60c8c1	0.054878954
87	0x3d35df31	0.044402305
88	0xbca41d2c	-0.020033441
89	0x3bda2142	0.0066567967
90	0xbb74b4a3	-0.0037339113
91	0x3d0aa6b3	0.033850383
92	0xbc9d37ec	-0.019191705
93	0xbd597a14	-0.05309494
94	0xbd584248	-0.052797586
95	0x3d3a24b1	0.045445148
96	0xbcde6ad9	-0.027150558
97	0x3d400461	0.046879176
98	0x3d3347c8	0.043769628
99	0xbd3f075a	-0.04663787

network.action_value.2.weight f4 [100, 100]
0	0xbd918f3d	-0.07107399
1	0x3d9488ba	0.07252641
2	0x3c871d72	0.016493533
3	0x3d2f3e42	0.042783983
4	0x3dd10fac	0.10208067
5	0x3cfe3467	0.031030847
6	0x3d7175a6	0.05895009
7	0x3ab72016	0.0013971354
8	0x3c66a33a	0.014077002
9	0xbc5de90d	-0.013544333
10	0x3d061dff	0.03274345
11	0xbd917306	-0.07102017
12	0x3da5f04d	0.08102474
13	0x3dac45ab	0.084117256
14	0xbd1abf13	-0.03777988
15	0x3cb4bedf	0.02206367
16	0x3d5a9007	0.05336001
17	0xbd36a277	-0.044588532
18	0x3cb1a036	0.02168284
19	0xbd61a25d	-0.055086482
20	0xbcbbf073	-0.022941804
21	0xbcd1c367	-0.02560587
22	0x3d3e6491	0.046482626
23	0x3c075b5d	0.008261529
24	0x3c3d53da	0.011555636
25	0xbaf88d33	-0.0018962979
26	0x3c7147f3	0.014726627
27	0xbbe4db8d	-0.0069841803
28	0x3da3ea63	0.0800369
29	0x3d8b6492	0.06806292
30	0x3d056ea0	0.032576203
31	0xbdafe72f	-0.08589017
32	0x3d1e7434	0.03868504
33	0x3d7ecd70	0.06220764
34	0xbd75ad13	-0.05997951
35	0x3cf86f74	0.030326582
36	0xbbef9833	-0.0073118447
37	0x3d56cda3	0.052442204
38	0xbd92aa06	-0.07161336
39	0xbda38c6b	-0.07985767
40	0x3d1f0243	0.038820516
41	0x3d72158d	0.059102584
42	0xbd4b68f0	-0.049660623
43	0x3dabffac	0.08398375
44	0x3dd5fff1	0.104492076
45	0x3bf925ae	0.0076033687
46	0x3dd0c5b7	0.10193961
47	0x3d2496f9	0.04018304
48	0xbdb32fb5	-0.08749334
49	0x3d8a60d3	0.06756749
50	0xbdbe002a	-0.09277375
51	0xbc0b9a8d	-0.0085207345
52	0xbc5c0c40	-0.013430655
53	0xbd02ca26	-0.031931065
54	0xbdb71532	-0.089395896
55	0x3d893812	0.06700148
56	0x3d21d8f7	0.039513554
57	0xba87a639	-0.0010349221
58	0xbcefeb83	-0.029287105
59	0xbdc1c108	-0.09460646
60	0xbc1b7d40	-0.009490311
61	0x3d9f5f89	0.07781894
62	0x3d7ffeb0	0.06249875
63	0xbca39580	-0.019968748
64	0xbd36e927	-0.044655945
65	0xbd9b9359	-0.07596464
66	0x3bf29c80	0.00740391
67	0x3d24333c	0.040087923
68	0xbd882711	-0.06648076
69	0xbb217100	-0.0024634004
70	0xbc2134c9	-0.009839245
71	0x3db983d6	0.09058349
72	0xbda97665	-0.08274535
73	0x3d16add0	0.036786854
74	0x3d2d1c01	0.042263035
75	0x3c4f8ab3	0.012667346
76	0x3d9e9c43	0.07744648
77	0xbd9faf7b	-0.07797142
78	0x3cfba1d3	0.030716812
79	0x3cd28f67	0.025703145
80	0xbd3dd603	-0.046346676
81	0x3dd30035	0.10302774
82	0x3d3135e4	0.043264285
83	0xbd52d837	-0.05147573
84	0x3a9ef3b3	0.0012127071
85	0xbdac4eea	-0.08413489
86	0x3d0f5cc3	0.035000574
87	0x3dc4c7d2	0.09608425
88	0x3dae4c53	0.085106514
89	0x3ccf0c20	0.025274336
90	0x3d3d9cc3	0.046292078
91	0x3cc3afb3	0.02388749
92	0xbd6496f0	-0.055808008
93	0x3d99477b	0.07484337
94	0x3d477157	0.048692074
95	0xbd3e57bd	-0.046470392
96	0x3c3811eb	0.011234741
97	0xbd8c988b	-0.06865033
98	0x3db718ef	0.089403026
99	0xbc3c5a8f	-0.0114962
100	0x3db46842	0.08808948
101	0x3d0f691d	0.035012353
102	0x3d807a3f	0.062733166
103	0x3d3ecb60	0.046580672
104	0xbd6946ea	-0.056952395
105	0xbc8d3773	-0.017238354
106	0x3d4d8fea	0.050186075
107	0x3db10402	0.086433426
108	0xbdb6c3b7	-0.089240484
109	0x3d92a045	0.07159475
110	0x3da56ac3	0.08077004
111	0xbd96f487	-0.07370859
112	0x3d453067	0.048141863
113	0xbd8ea94b	-0.06965884
114	0xbd7f0bdd	-0.062267173
115	0xbbed4db3	-0.0072419285
116	0x3d88ab47	0.066732936
117	0xbdb59327	-0.08865958
118	0xbd69cc8a	-0.05707983
119	0xbd370ad3	-0.044688057
120	0xbdc4fabf	-0.096181385
121	0x3b46fb9a	0.0030362369
122	0x3bec78cd	0.007216549
123	0xbda7344f	-0.08164274
124	0x3d96e6d0	0.07368243
125	0xbd473383	-0.04863311
126	0x3d9311fb	0.07181164
127	0xbdae3f85	-0.08508209
128	0xbda7e2b5	-0.08197538
129	0x3db6eee3	0.08932283
130	0xbd97ad4a	-0.07406099
131	0x3c058f1a	0.008151794
132	0xbd54e490	-0.051975787
133	0x3cf885da	0.030337263
134	0x3baa5b9a	0.005198908
135	0x3d9179a3	0.071032785
136	0x3d0d57e7	0.03450766
137	0x3c90ae00	0.017661095
138	0xbda57e07	-0.080806784
139	0x3d692363	0.056918513
140	0xbdafd1e3	-0.085849546
141	0x3d969ab5	0.07353727
142	0x3da6923b	0.0813336
143	0x3d73c653	0.05951531
144	0x3d937ddb	0.072017394
145	0x3d98d04d	0.07461605
146	0x3c8f82f3	0.017518496
147	0xbd788360	-0.060672164
148	0xbd5bc207	-0.053651836
149	0xbc2f914d	-0.010715795
150	0xbcc3304d	-0.023826743
151	0x3ccf3f27	0.025298668
152	0xbdcb6e4b	-0.09933146
153	0x3cb48753	0.022037184
154	0xbd821dd3	-0.06353345
155	0x3dc569a5	0.09639291
156	0xbc87d100	-0.016579151
157	0x3d30b04a	0.043136872
158	0xbbb8f180	-0.0056440234
159	0xbd7aac6a	-0.061199583
160	0xbda761b8	-0.08172935
161	0x3d9035b3	0.07041492
162	0xbd4f526d	-0.050615717
163	0xbda050f8	-0.078279436
164	0x3dbea252	0.09308304
165	0xbd869bfd	-0.06572721
166	0x3d00b3d7	0.03142151
167	0xbd207437	-0.03917333
168	0xbd8f7a9d	-0.070058085
169	0x3d90054b	0.070322596
170	0x3d86493a	0.065569356
171	0xbcf2d100	-0.029640675
172	0xbd8c7db2	-0.06859912
173	0x3dc0e5cd	0.09418831
174	0x3da9c505	0.082895316
175	0xbcbfa16d	-0.023392403
176	0xbdbc97c2	-0.09208633
177	0x3db99677	0.09061902
178	0xbdbfeb92	-0.09371103
179	0xbd1c38ed	-0.038140226
180	0x3c3d280d	0.011545193
181	0xbdc7ec7a	-0.09761901
182	0x3d9ce9ff	0.07661819
183	0x3d90f365	0.07077674
184	0xbd029550	-0.031880677
185	0x3d92c21d	0.071659304
186	0xbbddcc4d	-0.0067687393
187	0xbcb9b2a7	-0.022668196
188	0xbd952f1d	-0.07284377
189	0x3b605f9a	0.003423667
190	0x3d4519f3	0.04812045
191	0xbc7990a7	-0.015232242
192	0xbc8ba4fa	-0.01704644
193	0xbd926a52	-0.07149185
194	0x3afc7b33	0.001926279
195	0x3dbac847	0.09120231
196	0xbd0191e0	-0.031633258
197	0x3c83e68d	0.016101146
198	0xbd31584d	-0.0432971
199	0xbcd67360	-0.026178062
200	0xbd92effa	-0.07174678
201	0x3c1b6400	0.009484291
202	0x3cddea28	0.027089193
203	0x3c9f5ab1	0.019452425
204	0x3d3edd8e	0.04659801
205	0xbd212c0d	-0.03934865
206	0x3d811033	0.06301918
207	0x3d3c2d7f	0.045941826
208	0xbdc5244d	-0.096260644
209	0x3dc657c7	0.09684711
210	0x3d0a2fbe	0.033736937
211	0x3da1835d	0.07886384
212	0x3d65918a	0.056047
213	0xbd94acff	-0.07259559
214	0x3d047653	0.032339405
215	0x3c8c598e	0.017132547
216	0x3b8c07b3	0.0042733788
217	0x3ca097c7	0.019603623
218	0xbd5db86f	-0.054130968
219	0x3d985ae3	0.0743921
220	0xbc1e0f5a	-0.009647215
221	0x3d41bb7e	0.047297947
222	0xbdcb1102	-0.09915353
223	0x3d5b2060	0.053497672
224	0x3d583fbb	0.052795153
225	0xbd0b5a20	-0.034021497
226	0xbd4255fa	-0.047445275
227	0xbd866ecc	-0.065641016
228	0xbd04903a	-0.032364108
229	0x3d3cb94c	0.04607515
230	0xbd3dfeab	-0.04638545
231	0x3cc54f20	0.024085581
232	0x3c235629	0.009969273
233	0x3c86c40d	0.016450906
234	0xbd3a750d	-0.045521785
235	0xbd7757c8	-0.06038645
236	0x3dc708e0	0.0971849
237	0xbdd55dde	-0.10418294
238	0x3d1c86a6	0.03821435
239	0xbda8b1f3	-0.08237066
240	0xbd36fa78	-0.04467246
241	0x3c0d6a5a	0.008631313
242	0xbd1e9bf7	-0.03872296
243	0xbc36cbc4	-0.01115698
244	0x3d8dd3ca	0.06925161
245	0xbdccef91	-0.10006631
246	0x3d91185c	0.07084724
247	0x3d4656fc	0.0484228
248	0xbd616a73	-0.05503316
249	0x3dbd29a0	0.09236455
250	0xbdab1e62	-0.083554044
251	0xbce21533	-0.027598
252	0x3d670ed0	0.05641061
253	0x3db04057	0.08606022
254	0x3d60a88d	0.054848243
255	0xbd0fd5a8	-0.035115868

network.action_value.2.bias f4 [100]
0	0x3da2a7f5	0.079421915
1	0x3a478400	0.0007610917
2	0xbd4b3f76	-0.049621068
3	0xbd8cb0ab	-0.06869634
4	0x3dc14bf9	0.09438319
5	0x3d7bd69f	0.061483975
6	0x3d905be8	0.0704878
7	0x3d34e626	0.0441648
8	0xbc0ab8b9	-0.008466893
9	0xbd6fd064	-0.058548346
10	0xbceadeba	-0.028670657
11	0xbd39606f	-0.045257982
12	0xbd9d289b	-0.076737605
13	0x3dbc2a38	0.0918774
14	0xbd81a0f7	-0.0632953
15	0xbdb821e5	-0.0899084
16	0x3c82ac20	0.015951216
17	0x3d2f5cbc	0.042813048
18	0xbd89a31f	-0.06720566
19	0xbcbaa5ea	-0.022784192
20	0x3d4716f7	0.048605885
21	0xbd63aa9a	-0.05558262
22	0x3d73b53d	0.059499014
23	0xbc117013	-0.008876818
24	0x3d447157	0.04795965
25	0xbcf21213	-0.029549634
26	0x3d2849f8	0.041086167
27	0xbdba2f75	-0.09091083
28	0x3dc1e447	0.094673686
29	0x3c492198	0.012276076
30	0xbd91a777	-0.071120195
31	0x3b403c10	0.0029332675
32	0x3ce247b3	0.02762208
33	0xbd9f937e	-0.07791804
34	0xbdac786c	-0.08421406
35	0x3c387dba	0.011260444
36	0xbdcb1d60	-0.09917712
37	0xbd8ff746	-0.070295855
38	0x3d1592e4	0.03651704
39	0xbd9e7cd9	-0.077386566
40	0x3db03582	0.08603956
41	0xbdba0b9a	-0.09084244
42	0xbd9b5357	-0.07584255
43	0x3c94e580	0.01817584
44	0x3d1952e2	0.03743256
45	0xbdbe5620	-0.09293771
46	0xbba10aee	-0.004914633
47	0x3d8cfe32	0.068844214
48	0xbda024b6	-0.07819502
49	0x3caa807a	0.020813216
50	0x3caaca07	0.020848287
51	0xbdaf05db	-0.08546039
52	0xbd8eba13	-0.069690846
53	0x3c99a482	0.018755201
54	0xbd07d41f	-0.03316128
55	0x3da91e3a	0.082577184
56	0x3d85bb0a	0.065298155
57	0xbdc589df	-0.096454374
58	0x3dacd663	0.084393285
59	0xbd143933	-0.036187362
60	0xbcefb351	-0.02926031
61	0xbd8a70ed	-0.0675982
62	0xbd41a5ed	-0.04727738
63	0x3dcc7578	0.09983343
64	0x3ab6c81f	0.0013945139
65	0xbb99fa06	-0.0046989946
66	0xbc6c77fc	-0.014432903
67	0xbd9c995c	-0.076464385
68	0x3ca4eabb	0.02013146
69	0x3c634ad6	0.013872823
70	0xbc378cb3	-0.011202979
71	0xbcfb04fd	-0.030642027
72	0x3d3ecf91	0.04658467
73	0xbb0319a4	-0.0020004297
74	0x3db9a1f7	0.090640955
75	0xbd17a881	-0.037025932
76	0xbcd167c0	-0.025562167
77	0xbd606c43	-0.054790746
78	0xbd58e18d	-0.052949477
79	0xbb667986	-0.0035167648
80	0xbcac4c15	-0.021032372
81	0x3d9cffbb	0.07665964
82	0xbd5b112e	-0.05348318
83	0xbc964528	-0.018343523
84	0x3d90f33a	0.07077642
85	0xbbc7ea59	-0.0061009345
86	0x3c4089cd	0.011751604
87	0x3cc86846	0.024463784
88	0xbd79d710	-0.060996115
89	0xbaa13e25	-0.0012301846
90	0x3d91f52f	0.07126843
91	0xbc096e43	-0.008388105
92	0x3d7a9551	0.061177555
93	0x3cf560b7	0.029953344
94	0xbbf9f6cd	-0.007628298
95	0xbd56e377	-0.05246302
96	0xbdd369cd	-0.10322914
97	0xbdc233ab	-0.09482511
98	0xbdb2750d	-0.08713732
99	0xbdbf21c5	-0.09332613

network.action_value.4.weight f4 [25, 100]
0	0xbd2c4ab2	-0.042063423
1	0x3d29a00a	0.04141239
2	0x3d3218b4	0.04348059
3	0x3d1a4708	0.037665397
4	0x3da0ef69	0.07858164
5	0xbd68ec6e	-0.056866102
6	0x3beb4ff4	0.007181162
7	0xbd862bc3	-0.06551316
8	0xbda45e40	-0.08025789
9	0xbc9ed3e6	-0.01938815
10	0xbdccbc8f	-0.09996902
11	0x3db90914	0.09034935
12	0xbdc147b0	-0.094375014
13	0x3dbcb533	0.092142485
14	0x3d8f5e4e	0.07000409
15	0xbc8b70fa	-0.017021645
16	0xbdc001a4	-0.09375313
17	0xbd07f06f	-0.03318828
18	0xbdcacfe7	-0.099029355
19	0xbdc21333	-0.09476318
20	0xbd206197	-0.03915557
21	0x3d8769e2	0.066119924
22	0xbb9d0467	-0.0047917846
23	0x3da8d632	0.082439795
24	0xbb6e518b	-0.0036364521
25	0x3d1e49b7	0.03864452
26	0x3ca6f9f5	0.02038286
27	0xbbde2467	-0.006779242
28	0x3d030ad0	0.031992733
29	0xbdb97c93	-0.09056964
30	0xbdc91099	-0.09817619
31	0xbcc4c576	-0.024019938
32	0x3d114b83	0.035472404
33	0xbceb3dcb	-0.028715989
34	0x3d4e2767	0.050330546
35	0xbd88f918	-0.06688136
36	0xbd570380	-0.052493572
37	0xbccbe13e	-0.024887677
38	0xbda2acb0	-0.07943094
39	0x3afe93c2	0.0019422697
40	0xbdaaf096	-0.083466694
41	0x3a8d1731	0.0010764358
42	0xbdc89bb8	-0.09795326
43	0x3d5d4df3	0.054029416
44	0x3bed4517	0.007240902
45	0xbd893af3	-0.06700697
46	0x3d7d4c0f	0.061840113
47	0xbdc23f13	-0.09484687
48	0x3d4b0422	0.04956449
49	0xbd990617	-0.07471865
50	0xbc51f98d	-0.012815845
51	0x3d3cce8f	0.046095427
52	0x3d376580	0.044774532
53	0x3cd86384	0.02641464
54	0xbdda3cf6	-0.106561586
55	0x3cacdcba	0.021101344
56	0x3d5724c5	0.0525253
57	0xbc0fe755	-0.008783181
58	0xbdb75ef3	-0.08953657
59	0xbbb54533	-0.005531931
60	0x3dc03cd6	0.093866035
61	0x3d571820	0.05251324
62	0x3cd2b0b3	0.025719022
63	0xbdba3d4a	-0.09093721
64	0x3c3333da	0.010937655
65	0x3d09ac0b	0.03361134
66	0xbd051a27	-0.032495644
67	0x3c5e95ee	0.013585551
68	0xbcd06df6	-0.025443058
69	0xbd3fbb43	-0.046809446
70	0xbd5c14fd	-0.053730953
71	0x3af43594	0.001863169
72	0x3b29fc3c	0.0025937697
73	0xbbab9031	-0.005235695
74	0x3daa57fb	0.08317562
75	0x3d4a67c7	0.049415376
76	0x3db46dfb	0.088100396
77	0x3ccd6587	0.025072826
78	0x3dca3037	0.098724775
79	0xbd90b5da	-0.070659354
80	0x3daae4c4	0.08344415
81	0x3cd4c487	0.025972618
82	0xbd59f28e	-0.053209834
83	0x3b6020fc	0.0034199348
84	0x3d5deef9	0.05418298
85	0xbd2ee4b0	-0.042698562
86	0x3d9392c3	0.07205727
87	0xbd076f80	-0.03306532
88	0xbd838e3f	-0.06423616
89	0xbbfc657b	-0.007702527
90	0xbd6cf34d	-0.057849217
91	0x3d9b0c94	0.075707585
92	0x3af0a64a	0.0018360105
93	0xbc009a35	-0.007849266
94	0xbc9e7f00	-0.019347668
95	0x3d08715a	0.033311225
96	0x3d9420e4	0.07232836
97	0xbdb3bcfb	-0.087762795
98	0x3d2c1095	0.042008
99	0x3d57eda1	0.052716855
100	0xbd5579b8	-0.052118033
101	0xbc537f67	-0.012908793
102	0xbd707234	-0.058702663
103	0xbd90be6b	-0.07067569
104	0xbd974e87	-0.07388025
105	0x3d05597b	0.03255604
106	0xbd824855	-0.063614525
107	0xbc8f3147	-0.017479552
108	0xbd8b3d6b	-0.06798824
109	0xbc392b58	-0.011301838
110	0xbcd61be0	-0.026136339
111	0xba8b2829	-0.0010616827
112	0xbd057f87	-0.032592323
113	0xbdc7ecd0	-0.09761965
114	0x3d81964e	0.063274965
115	0x3d9a314a	0.075289324
116	0xbc718714	-0.014741678
117	0xbc98a252	-0.018632088
118	0x3c626ab3	0.013819384
119	0xbcb4fa22	-0.022091929
120	0xbd6030cd	-0.05473404
121	0x3b6f7111	0.0036535899
122	0x3d5fb713	0.054617953
123	0x3d264345	0.040591497
124	0xbd69cd7a	-0.057080723
125	0x3dabebc5	0.08394579
126	0xbd989052	-0.07449402
127	0xba773b33	-0.00094311236
128	0x3dbc2112	0.09185995
129	0x3d04be55	0.032408077
130	0x3cb859c1	0.022503735
131	0xbdcf9b22	-0.10137011
132	0x3d46c38d	0.048526336
133	0xbdad53ff	-0.084632866
134	0x3d659e65	0.05605926
135	0x3ce201d7	0.027588768
136	0xbd0ce553	-0.034398388
137	0x3da93148	0.08261353
138	0xbdda697f	-0.10664653
139	0x3dc5c1c3	0.09656098
140	0xbdc438d1	-0.09581149
141	0x3d8904e7	0.06690388
142	0x3d12086d	0.035652567
143	0x3d99ec02	0.07515718
144	0xbc50df07	-0.012748486
145	0x3d5f7550	0.054555237
146	0x3c49e3df	0.012322395
147	0xbd171e31	-0.036894027
148	0xbd9c87c3	-0.07643082
149	0x3d10fdba	0.035398223
150	0x3bc3b880	0.005972922
151	0xbce8e111	-0.028427633
152	0xbc7cd0cd	-0.015430641
153	0xbc377d39	-0.011199289
154	0xbcd985a0	-0.026552975
155	0xbc68cac0	-0.014208496
156	0xbd228c1d	-0.039684404
157	0x3cf8dea1	0.030379595
158	0x3c9deefc	0.019278996
159	0x3c1013cd	0.008793783
160	0x3d850973	0.06495943
161	0x3d5f706a	0.054550566
162	0xbd00ac57	-0.031414356
163	0x3d204d69	0.039136324
164	0xbd424b7b	-0.047435265
165	0x3d6889b1	0.056771938
166	0xbdcaa881	-0.09895421
167	0xbb9bd6fb	-0.0047558523
168	0x3da6ddd1	0.08147777
169	0xbdbb319f	-0.09140324
170	0x3d87f8bf	0.066392414
171	0x3d64bf22	0.05584634
172	0xbd3e52f7	-0.04646584
173	0x3da25874	0.07927027
174	0x3d5d46f0	0.05402273
175	0x3c858db8	0.016302928
176	0xbc814d5e	-0.015783962
177	0xbd8782de	-0.06616758
178	0x3c91cb20	0.017797053
179	0xbd65f2d6	-0.05613979
180	0xbd6caa70	-0.05777973
181	0x3d4de7c0	0.050269842
182	0x3d2556a6	0.040365838
183	0xbd2b298e	-0.041787677
184	0x3c7177ee	0.014738066
185	0xbba034b0	-0.0048890933
186	0x3cb6fd87	0.022337688
187	0xbd0a380f	-0.033744868
188	0xbdaac097	-0.08337515
189	0xbd739833	-0.05947132
190	0x3d6b4bb2	0.057445236
191	0x3cf60312	0.03003076
192	0x3c335784	0.010946158
193	0xbd0b16b3	-0.033957195
194	0x3ca38600	0.019961357
195	0x3d09cb3d	0.03364109
196	0xbd85770b	-0.06516846
197	0x3d70c1aa	0.058778442
198	0xbd82b778	-0.0638265
199	0xbcd6c37e	-0.026216265
200	0xbd8642be	-0.06555699
201	0x3c138827	0.009004629
202	0xbcc39685	-0.023875484
203	0xbcf1c7e8	-0.029514268
204	0x3cb7c80b	0.022434255
205	0xbd4be181	-0.049775604
206	0x3c3f5a62	0.011679264
207	0x3d73a506	0.05948355
208	0xbda2e25b	-0.0795333
209	0xbd2e66af	-0.042578395
210	0x3d93a920	0.072099924
211	0xbd010c7c	-0.031506047
212	0xbc146400	-0.009057045
213	0x3d21285a	0.039345123
214	0xbc08f913	-0.008360165
215	0xbd946a88	-0.07246882
216	0xbd350cb8	-0.044201583
217	0x3dafd869	0.08586199
218	0xbdc803fa	-0.097663835
219	0xbd263f56	-0.040587746
220	0xbd264ecd	-0.040602494
221	0xbb399e12	-0.0028322977
222	0x3dabda00	0.083911896
223	0xbd810ab3	-0.06300869
224	0x3cc5b354	0.024133362
225	0x3dc684bf	0.09693288
226	0x3d0aa495	0.033848364
227	0x3da3ccd0	0.07998049
228	0xbdabae60	-0.08382869
229	0xbd1e361b	-0.038625818
230	0xbd53c8d8	-0.05170521
231	0xbcb06efa	-0.021537293
232	0x3dada02c	0.08477816
233	0x3dc4afb6	0.09603827
234	0x3dd2f8ca	0.10301359
235	0xbda5ca72	-0.08095254
236	0xbcc4ea60	-0.02403754
237	0x3d96219b	0.073306285
238	0xbcb07c54	-0.02154366
239	0x3dbff016	0.09371965
240	0x3cd323e3	0.025773948
241	0x3d82a7dc	0.06379673
242	0x3c4ae367	0.0123833185
243	0x3d54f33a	0.05198977
244	0xbb8b418a	-0.004249756
245	0xbdb9c9b0	-0.09071672
246	0xbd2d9514	-0.0423785
247	0xbd40d4e0	-0.047078013
248	0xbd7abb7c	-0.061213955
249	0x3d91f352	0.07126488
250	0xbaba0d9a	-0.0014194727
251	0x3cc6117c	0.02417826
252	0x3d30a4e3	0.043126
253	0x3d8323a9	0.06403286
254	0x3d8e6598	0.06952971
255	0xbd67834d	-0.056521703

network.action_value.4.bias f4 [25]
0	0x3dadea3e	0.08491944
1	0x3d8e53bc	0.06949565
2	0xbda9d902	-0.08293344
3	0x3d25fa7c	0.040522084
4	0xbdc54445	-0.09632162
5	0xbca80f46	-0.020515095
6	0x3cf53c88	0.02993609
7	0x3d72e948	0.059304506
8	0xbd30a3e0	-0.043125033
9	0xbd2bfe67	-0.041990664
10	0x3dce3407	0.10068517
11	0xbdba4221	-0.09094644
12	0x3d8ff63e	0.07029389
13	0x3cab907a	0.020942915
14	0xbd63be0d	-0.05560117
15	0x3d303d53	0.043027233
16	0x3caebbc8	0.021329775
17	0xbd87b44e	-0.06626187
18	0x3d4b0101	0.049561504
19	0xbd6fec25	-0.058574814
20	0x3d193122	0.037400372
21	0x3d25f1ca	0.04051379
22	0x3c3c0dd3	0.011477905
23	0x3d8de04e	0.06927548
24	0xbcd49ba7	-0.025953127
