CS260R/Pts/pg_trainer_metadrive_easy.pt (torch, 151597 bytes, 6 tensors)

network.action_value.0.weight f4 [100, 259]
0.00012977349 0.027483398 0.02662962 0.013671756 -0.007985431 -0.021449048 0.019823167 -0.04641799
0.059379134 0.041695993 0.050023355 0.06116406 -0.0036236506 0.022446338 0.04046488 -0.04765981
0.012303756 0.028668625 0.051277965 0.0627463 0.06143292 -0.004623712 0.0134813655 -0.035541713
-0.00465986 0.04768252 0.060933128 -0.015642209 -0.049843874 -0.013862149 -0.035719793 0.06780413
0.04456762 -0.049479183 0.055878807 -0.037506837 0.033836484 0.06618031 0.012523226 -0.009519426
0.05567744 0.05175475 -0.048620854 0.02775574 0.02047115 0.037218783 0.058574922 0.048783533
0.04461584 -0.054655544 0.038596712 0.06355149 -0.029967727 -0.028807417 0.008355217 0.0045249085
0.06805876 -0.006402502 -0.013076714 -0.014399005 -0.05235295 0.037767325 0.058719702 0.03937209
0.0053216023 0.047140747 -0.0070425263 0.044571914 0.021147963 -0.038081083 0.028298143 0.034664705
0.06350175 0.06722016 -0.0037567448 0.014996506 -0.04364501 -0.03123186 0.004163483 0.006248627
-0.049811978 -0.025157286 -0.017489737 -0.0237598 0.015882121 0.042407393 0.02466468 -0.0010581431
0.044531435 0.053927027 -0.026009534 0.03295768 0.004604339 -0.043109782 -0.009709586 -0.031211969
0.058427107 0.06685147 0.06246958 -0.04704972 -0.0444245 -0.019986086 0.023078348 -0.030714236
0.0546188 0.031219415 -0.013361742 0.014627471 0.011283859 0.034970626 0.006222028 0.042836625
-0.030609207 -0.04847393 -0.04535946 -0.031411774 0.0064725173 0.066217765 0.011781299 0.01031533
-0.032312054 -0.02935623 0.0029833952 -0.01430649 -0.012246895 -9.7234224e-05 0.045912318 -0.018852063
0.020208659 0.0083565805 -0.013008459 -0.028283872 0.053765386 -0.01474476 0.010061001 0.04134022
0.030451246 -0.049997993 0.056494575 -0.035480298 0.039521158 0.031024856 0.039363164 0.013868048
0.012937397 -0.010707349 0.0066371197 0.05584778 0.016062478 -0.026147189 0.0017404507 0.056135364
-0.027493928 0.05700621 -0.04714194 -0.003368743 0.06261162 -0.037185915 0.0072208424 -0.041550513
0.047687404 -0.038188424 0.017160648 0.015780155 0.05077217 0.019493235 0.019117873 -0.002695502
-0.054122675 0.044821024 -0.02057282 -0.001075696 -0.020259535 0.054325502 0.0058331625 0.0150951985
-0.01711018 -0.032475345 -0.008414972 -0.0155923 0.06412648 0.06679844 0.015155154 -0.015789136
0.04827874 0.05717203 0.052276853 0.027146544 0.035953473 0.050093062 -0.018868906 -0.0027593214
-0.04759025 0.0043425923 0.03360182 -0.051714104 -0.0022290584 -0.036947332 0.0052349423 -0.040782325
0.01440349 0.055171706 0.03042116 0.006495704 0.0067661745 0.05143776 0.044202797 0.01530865
-0.039119948 0.041792557 0.036564767 0.011423533 0.061140325 0.019627541 -0.010304425 0.0104369065
-0.016379774 -0.020261468 0.017039437 0.022246003 0.030700555 -0.0038998178 0.035818834 -0.014571079
-0.03646185 0.05999357 0.03259038 0.013023545 -0.035096966 0.03720255 -0.0029652764 -0.026274273
-0.009620009 0.027792718 -0.0035575728 0.024425607 0.05814119 -0.047521796 -0.012193164 -0.018654142
-0.033829894 0.057907995 0.018811254 -0.0006228798 0.06636937 -0.01672614 -0.024921395 0.030843595
-0.015177485 0.056580916 0.046309676 0.04400094 0.029808125 -0.0060040453 -0.018806167 0.059818186
00000000: ce13 0839 dd24 e13c 5c26 da3c 80ff 5f3c
00000010: 53d5 02bc eab5 afbc 3264 a23c ca20 3ebd
00000020: 8937 733d 6bc9 2a3d 4ae5 4c3d 2a87 7a3d
00000030: c57a 6dbb 62e1 b73c 81be 253d ef36 43bd
00000040: b195 493c 77da ea3c d808 523d 2281 803d
00000050: 16a1 7b3d 8282 97bb f2e0 5c3c 3094 11bd
00000060: bdb1 98bb bf4e 433d 0495 793d 1724 80bc
00000070: 1729 4cbd 111e 63bc eb4e 12bd e4dc 8a3d
00000080: 898c 363d afaa 4abd 2de1 643d c5a0 19bd
00000090: 2098 0a3d 8b89 873d 382e 4d3c 5ef7 1bbc
000000a0: 070e 643d cafc 533d a926 47bd 0160 e33c
000000b0: 1db3 a73c b972 183d 42ec 6f3d 3ed1 473d
000000c0: 19bf 363d 7ede 5fbd 9617 1e3d 4927 823d
000000d0: e17e f5bc 88fd ebbc 52e4 083c af45 943b
000000e0: 6462 8b3d 14cc d1bb b73f 56bc cee9 6bbc
000000f0: 0c70 56bd e9b1 1a3d 1284 703d a144 213d
00000100: d660 ae3b a816 413d fec4 e6bb 0a91 363d
00000110: 7e3e ad3c e9fa 1bbd 82d1 e73c 94fc 0d3d
00000120: 350d 823d b9aa 893d b833 76bb e8b3 753c
00000130: 1cc5 32bd f5d9 ffbc d46d 883b 48c1 cc3b
00000140: a507 4cbd a716 cebc a346 8fbc e9a3 c2bc
00000150: 391b 823c 60b3 2d3d 950d ca3c 64b1 8aba
00000160: 9866 363d 96e2 5c3d f211 d5bc a2fe 063d
00000170: ffdf 963b e293 30bd f514 1fbc 3eb0 ffbc
00000180: 4351 6f3d 6ce9 883d 1ae0 7f3d 35b7 40bd
00000190: 77f6 35bd dcb9 a3bc ce0e bd3c 6c9c fbbc
000001a0: f6b7 5f3d dcbf ff3c 35eb 5abc 0fa8 6f3c
000001b0: efdf 383c 5c3d 0f3d 27e2 cb3b 7575 2f3d
000001c0: 29c0 fabc 9a8c 46bd d7ca 39bd a2a9 00bd
000001d0: 6917 d43b 2e9d 873d 5906 413c a101 293c
000001e0: a559 04bd 7a7c f0bc 1185 433b c565 6abc
000001f0: 33a7 48bc 3aea cbb8 8e0e 3c3d a46f 9abc
00000200: a18c a53c 0aea 083c 6e21 55bc 94b3 e7bc
00000210: 1839 5c3d 0194 71bc e6d6 243c 5d54 293d
00000220: e474 f93c b2ca 4cbd db66 673d ca53 11bd
00000230: f0e0 213d d727 fe3c 453b 213d cf36 633c
00000240: 60f7 533c e06d 2fbc 327c d93b a4c0 643d
00000250: 7595 833c a132 d6bc d61f e43a 32ee 653d
00000260: f23a e1bc 587f 693d e817 41bd 21c6 5cbb
00000270: 853a 803d 4250 18bd d19c ec3b df30 2abd
00000280: de53 433d 776b 1cbd 7d94 8c3c 6245 813c
00000290: 7bf6 4f3d 47b0 9f3c 169d 9c3c 05a7 30bb
000002a0: bdaf 5dbd 4096 373d 5588 a8bc 5efe 8cba
000002b0: 53f7 a5bc 6b84 5e3d 1d24 bf3b da51 773c
000002c0: a62a 8cbc de04 05bd f3de 09bc d976 7fbc
000002d0: be54 833d 9fcd 883d 534d 783c 3858 81bc
000002e0: eebf 453d 382d 6a3d 4120 563d 6e62 de3c
000002f0: f343 133d 622e 4d3d f792 9abc bbd5 34bb
00000300: feed 42bd 4e4c 8e3b 10a2 093d 2bd2 53bd
00000310: 6515 12bb 1656 17bd e189 ab3b 5e0b 27bd
00000320: 9efc 6b3c bafb 613d cc35 f93c ead9 d43b
00000330: c9b6 dd3b 67b0 523d fe0d 353d 22d1 7a3c
00000340: 3d3c 20bd ac2e 2b3d f0c4 153d c529 3b3c
00000350: 476e 7a3d f0c9 a03c e4d3 28bc 8fff 2a3c
00000360: e02e 86bc 61fb a5bc 4a96 8b3c 403d b63c
00000370: bb7f fb3c 1694 7fbb c5b6 123d 89bb 6ebc
00000380: 0559 15bd d1bb 753d 7e7d 053d b560 553c
00000390: d6c1 0fbd b361 183d 1555 42bb 253d d7bc
000003a0: 3e9d 1dbc 8ead e33c 2b26 69bb 3618 c83c
000003b0: 7525 6e3d 37a6 42bd d6c5 47bc 92d0 98bc
000003c0: 3791 0abd ef30 6d3d 0f1a 9a3c c148 23ba
000003d0: aaec 873d 4205 89bc f427 ccbc b5ab fc3c
000003e0: fcaa 78bc 64c1 673d 37af 3d3d 543a 343d
000003f0: 2b30 f43c 95bd c4bb 640f 9abc ea03 753d

network.action_value.0.bias f4 [100]
0.045878943 -0.020976007 -0.021780055 -0.028850757 -0.030965738 -0.0050882422 0.0034364308 0.01650954
0.009609656 -0.024829643 -0.014147598 -0.0532268 -0.04835109 -0.016663732 -0.055188917 0.027557248
0.029739475 -0.008762044 0.006966968 0.056544293 -0.032309666 0.0066240714 -0.0319439 0.0016701603
-0.047543515 0.054410845 0.04617703 -0.011170953 -0.03436228 0.036756825 0.070883535 -0.047931317
-0.02452713 -0.0049438677 -0.027985733 -0.05168882 0.040610418 -0.048582766 0.07542533 0.013224991
-0.028814867 -0.010079627 -0.05729366 0.05304436 0.00601554 -0.026704928 0.057733465 0.03725045
-0.04691943 -0.024764545 -0.02495283 0.0043822345 0.008797174 -0.001139199 0.0046933233 0.016084984
-0.014131667 0.017908458 0.039652977 0.020386474 0.029210322 0.003301947 -0.009312356 -0.00809072
0.003906669 0.015286848 0.013818966 -0.013191094 -0.0022537245 -0.024654988 0.042561084 0.06670095
0.015772663 0.043397937 -0.013096234 0.022547312 -0.0063270754 -0.017727695 -0.024687659 0.023339938
-0.015751688 0.027087469 0.07950656 0.00809573 0.029581925 0.04836027 -0.043061085 0.004152803
-0.036288776 0.020375805 -0.0010232197 0.04314955 -0.060648784 -0.041213725 -0.0447254 -0.030750673
0.020980665 0.004767623 -0.06058613 -0.028506102
00000000: 8feb 3b3d e0d5 abbc 166c b2bc 6c58 ecbc
00000010: dcab fdbc 45bb a6bb be35 613b 043f 873c
00000020: d271 1d3c 8967 cbbc 54cb 67bc 5804 5abd
00000030: cb0b 46bd 6182 88bc c60d 62bd bdbf e13c
00000040: 33a0 f33c ad8e 0fbc 2a4b e43b fd9a 673d
00000050: 2457 04bd bd0e d93b 9bd7 02bd 48e9 da3a
00000060: fdbc 42bd e8dd 5e3d 2024 3d3d 5f06 37bc
00000070: 76bf 0cbd 538e 163d 632b 913d a153 44bd
00000080: 1fed c8bc 2b00 a2bb 5642 e5bc a8b7 53bd
00000090: 1c57 263d b9fe 46bd 9878 9a3d a2ad 583c
000000a0: 280d ecbc 0525 25bc c2ac 6abd 0b45 593d
000000b0: 021e c53b 4bc4 dabc ed79 6c3d ee93 183d
000000c0: 972e 40bd 04df cabc e169 ccbc d998 8f3b
000000d0: 0622 103c 2d51 95ba 73ca 993b a8c4 833c
000000e0: 8288 67bc c2b4 923c 296b 223d 8901 a73c
000000f0: 7c4a ef3c 7a65 583b da92 18bc f08e 04bc
00000100: 8403 803b b075 7a3c f268 623c 751f 58bc
00000110: 39b3 13bb 42f9 c9bc 8854 2e3d 829a 883d
00000120: ac35 813c 09c2 313d 9691 56bc 24b5 b83c
00000130: 5b53 cfbb ac39 91bc c63d cabc 6633 bf3c
00000140: af09 81bc 8ae6 dd3c 56d4 a23d f4a3 043c
00000150: cb55 f23c 6b15 463d d260 30bd 3d14 883b
00000160: 8aa3 14bd 29eb a63c 8e1d 86ba 95bd 303d
00000170: dc6a 78bd b9cf 28bd fb31 37bd d6e8 fbbc
00000180: a5df ab3c b839 9c3b 2929 78bd a185 e9bc

network.action_value.2.weight f4 [100, 100]
0.048685312 -0.03949522 -0.060548663 0.07568922 0.074511446 -0.078242324 -0.07253617 0.022197997
0.019365383 -0.046878424 -0.06777587 -0.09039112 -0.056000173 -0.098839365 -0.051416587 0.06219815
-0.02631495 0.020766592 -0.010330224 -0.08614335 -0.006165004 -0.07368709 -0.07886618 0.02152424
0.067804255 -0.057170164 -0.022903908 -0.08008075 -0.07282036 -0.03297125 0.042218234 -0.023478342
0.017811025 0.06045158 0.08727057 -0.021693243 -0.0036634447 0.06196753 -0.0017848731 0.033774164
0.036994006 -0.09877666 0.04780339 0.026981438 0.057139445 0.0077335597 0.018160893 -0.06921653
0.051992048 -0.06835619 0.030718757 0.016401077 0.06086239 0.03228873 -0.0076140403 -0.07536061
0.05545143 0.03881527 0.07457854 0.080528036 0.010997928 0.07184132 -0.047330704 0.05692626
0.07502122 0.06498056 0.03475498 -0.06977662 0.014362586 0.07263481 -0.069791034 0.07011141
-0.04420158 0.05864966 0.008335876 -0.06392982 -0.068617955 -0.008008993 -0.06833658 -0.0032541037
0.051092256 0.053714693 -0.09327348 -0.014567661 -0.042631496 -0.028704023 0.028537953 0.05744821
0.036460735 0.07313454 0.047703218 -0.099252895 -0.017711282 -0.040448286 0.07185103 -0.09499528
0.0005874038 0.077023044 -0.086457886 -0.015316951 -0.08676119 -0.05371777 0.09243858 -0.020002043
-0.07343041 -0.043925416 -0.04594797 -0.07449509 -0.005837691 -0.07709815 0.0033747316 -0.015980959
0.06408315 0.054170024 0.096381664 0.05191312 0.09571152 -0.07441378 0.047259834 -0.041713536
-0.012628305 -0.0023872019 -0.058236804 0.014238072 -0.018727696 0.07674014 0.08213251 0.0053143264
0.03382311 -0.09473801 -0.06466513 0.03090539 -0.06618096 -0.035989773 -0.07842032 0.015459848
0.06598472 -0.065670505 -0.061512854 0.05239215 -0.07080557 -0.0961838 -0.07311342 0.058240484
0.023098147 0.05413276 0.031984534 0.089188956 0.078088604 0.073051274 -0.05213046 0.055083405
0.041339207 -0.0884931 0.028204322 -0.051111795 -0.012501336 -0.005288863 -0.06195898 0.03230375
0.08721902 0.019670034 -0.063501276 2.4080277e-06 -0.040515244 0.015298712 -0.0024561286 -0.08981395
-0.07575814 -0.07254994 -0.041021205 -0.040887393 -0.057606366 -0.039788198 -0.0013316155 0.06698412
0.04666653 0.07434227 0.0898329 -0.010889388 -0.065044954 0.03409138 -0.054807734 -0.06668706
-0.09414291 -0.08824177 0.03253075 -0.08357258 0.079415224 -0.05069082 0.022435963 -0.009807634
0.049926378 0.044946443 0.07579106 4.9972536e-05 0.07025033 -0.08148515 0.07440161 0.019128716
0.020145176 -0.015799418 0.06596288 -0.06728464 -0.054224398 -0.002932787 0.09926361 -0.034900308
-0.07940937 0.0020733895 -0.017109908 -0.018689359 0.06090484 0.06804204 -0.09422672 -0.04407661
-0.017276265 0.046619155 -0.028644733 -0.01760904 0.08245883 0.06193608 -0.041521203 0.05608331
0.0054893084 -0.100576065 -0.08268515 0.018212462 0.037483636 0.041713 0.06515153 -0.022276426
-0.024521125 -0.09364692 -0.05994632 -0.007236289 -0.07676993 -0.07296119 0.022803964 -0.0015581255
-0.10216993 0.078261785 -0.04196185 -0.08122744 -0.07404475 -0.06176437 -0.024823582 -0.069966584
0.024744356 0.055973046 0.010824382 -0.051871073 -0.019281352 -0.008037674 0.0072757737 0.08937203
00000000: 406a 473d bdc5 21bd e001 78bd f302 9b3d
00000010: 7599 983d 833d a0bd d88d 94bd 93d8 b53c
00000020: 27a4 9e3c 9703 40bd 13ce 8abd fb1e b9bd
00000030: 7060 65bd 4b6c cabd 339a 52bd 7dc3 7e3d
00000040: 7392 d7bc b31e aa3c 1a40 29bc ed6b b0bd
00000050: cd03 cabb 42e9 96bd 9784 a1bd 9a53 b03c
00000060: f5dc 8a3d 432b 6abd faa0 bbbc 6001 a4bd
00000070: d722 95bd dd0c 07bd 07ed 2c3d a755 c0bc
00000080: 6de8 913c 139c 773d eaba b23d 07b6 b1bc
00000090: 6716 70bb aad1 7d3d 67f2 e9ba c756 0a3d
000000a0: 0787 173d 6b4b cabd 7dcd 433d 2d08 dd3c
000000b0: 0d0b 6a3d cd69 fd3b 27c6 943c 65c1 8dbd
000000c0: 9df5 543d 55fe 8bbd e7a5 fb3c 8d5b 863c
000000d0: d74a 793d 3041 043d 337f f9bb aa56 9abd
000000e0: 0a21 633d c3fc 1e3d a2bc 983d e2eb a43d
000000f0: a730 343c 8b21 933d d7dd 41bd 832b 693d
00000100: baa4 993d 8714 853d 3d5b 0e3d 0be7 8ebd
00000110: 0d51 6b3c 8fc1 943d 9aee 8ebd 9296 8f3d
00000120: b70c 35bd a03a 703d 3393 083c a3ed 82bd
00000130: 9287 8cbd 2738 03bc 0df4 8bbd cd42 55bb
00000140: 1d46 513d f003 5c3d 2b06 bfbd 33ad 6ebc
00000150: 5d9e 2ebd b324 ebbc 6dc8 e93c d04e 6b3d
00000160: da57 153d 90c7 953d 7364 433d 1a45 cbbd
00000170: 4017 91bc 1aad 25bd a226 933d e38c c2bd
00000180: 00fc 193a 42be 9d3d d510 b1bd f3f3 7abc
00000190: daaf b1bd 2a07 5cbd 7050 bd3d 53db a3bc
000001a0: af62 96bd 23eb 33bd f033 3cbd e290 98bd
000001b0: 1a4a bfbb a3e5 9dbd 9a2a 5d3b 80ea 82bc
000001c0: 073e 833d 63e1 5d3d c063 c53d daa2 543d
000001d0: 6704 c43d 4066 98bd 8793 413d d0db 2abd
000001e0: f3e6 4ebc 9a72 1cbb b789 6ebd cd46 693c
000001f0: d36a 99bc ef29 9d3d 1735 a83d cd23 ae3b
00000200: 1a8a 0a3d 0006 c2bd 276f 84bd 4d2d fd3c
00000210: e289 87bd 036a 13bd d59a a0bd 4d4b 7d3c
00000220: ff22 873d 427e 86bd e7f4 7bbd 2799 563d
00000230: 8302 91bd 03fc c4bd 7dbc 95bd 938d 6e3d
00000240: 5338 bd3c 50ba 5d3d 3702 033d b3a8 b63d
00000250: ebec 9f3d e89b 953d c086 55bd 239f 613d
00000260: 4d53 293d df3b b5bd c00c e73c 9a5a 51bd
00000270: 67d2 4cbc 334e adbb b3c8 7dbd f050 043d
00000280: e39f b23d 0d23 a13c f50c 82bd 9a99 2136
00000290: 50f3 25bd 73a7 7a3c 00f7 20bb 60f0 b7bd
000002a0: 1527 9bbd 1095 94bd da05 28bd 8a79 27bd
000002b0: a7f4 6bbd f3f8 22bd 9a89 aeba f82e 893d
000002c0: 6725 3f3d c340 983d 50fa b73d 6769 32bc
000002d0: 4a36 85bd 67a3 0b3d 137e 60bd 3a93 88bd
000002e0: ffcd c0bd 1ab8 b4bd f73e 053d 1a28 abbd
000002f0: 73a4 a23d 2da1 4fbd a0cb b73c 33b0 20bc
00000300: 9a7f 4c3d c319 383d 5838 9b3d 9a99 5138
00000310: 68df 8f3d b0e1 a6bd df5f 983d d3b3 9c3c
00000320: 7f07 a53c c86d 81bc 8c17 873d 88cc 89bd
00000330: 671a 5ebd 0034 40bb b84a cb3d a0f3 0ebd
00000340: 61a1 a2bd b4e1 073b 142a 8cbc 6d1a 99bc
00000350: 5a77 793d a059 8b3d f0f9 c0bd ad89 34bd
00000360: f486 8dbc baf3 3e3d 5ca8 eabc d540 90bc
00000370: 2de0 a83d b0b0 7d3d 2312 2abd 9db7 653d
00000380: a8df b33b d3fa cdbd d556 a9bd 4d32 953c
00000390: 7188 193d 40db 2a3d 2a6e 853d 0d7d b6bc
000003a0: 87e0 c8bc f5c9 bfbd 468a 75bd 641e edbb
000003b0: 8e39 9dbd ad6c 95bd 61cf ba3c 043a ccba
000003c0: 783e d1bd b747 a03d 30e0 2bbd 925a a6bd
000003d0: c6a4 97bd a3fc 7cbd d35a cbbc a44a 8fbd
000003e0: adb4 ca3c fe43 653d c058 313c c376 54bd
000003f0: edf3 9dbc 73b0 03bc 9d69 ee3b af08 b73d

network.action_value.2.bias f4 [100]
0.045134425 0.06229631 0.039387688 -0.057364564 -0.058743563 0.029664202 0.044279493 0.10954289
-0.039590515 0.007559085 -0.005172801 0.09028078 -0.041678227 0.030435223 -0.044018794 0.07780691
-0.069372684 0.054145467 0.05571877 0.01705934 -0.053405527 -0.076523274 0.017002357 0.039759148
-0.041596007 -0.031927604 -0.028926438 -0.038416546 -0.049675502 0.045160532 -0.0792542 -0.0029463887
0.045705114 -0.02590923 -0.006463904 -0.06581199 -0.073646985 -0.06156061 0.049591865 -0.025983524
0.00041316237 -0.05864525 -0.02805652 -0.065578334 0.07137265 -0.038347263 0.019383114 0.0884789
0.029203927 -0.04668843 0.0136518935 -0.09741994 0.001232045 -0.09566432 -0.02405997 0.009325862
0.005133768 0.07038181 0.032039143 0.06395729 -0.060305025 0.0019798449 0.044628937 -0.06322563
0.035108995 -0.017039895 -0.02365098 0.07479443 0.028734518 -0.0105301505 0.07070324 -0.038661342
0.09666497 -0.031669986 0.034700986 -0.0072069885 0.079186045 -0.007002972 -0.023379942 0.03866687
0.048109185 -0.07493232 0.11870569 0.028208364 0.08090694 0.024550047 0.108839884 -0.06612761
-0.07783957 0.10715015 -0.055902507 0.022609366 -0.03355083 -0.023097694 -0.01514775 0.017679656
0.071872845 0.054815102 0.0015579343 0.01121299
00000000: e0de 383d 6a2a 7f3d fc54 213d 1bf7 6abd
00000010: 179d 70bd 5702 f33c 6a5e 353d 0658 e03d
00000020: aa29 22bd 33b2 f73b 9a80 a9bb 21e5 b83d
00000030: cab6 2abd 4a53 f93c 0d4d 34bd 3b59 9f3d
00000040: 4413 8ebd a3c7 5d3d 5d39 643d 07c0 8b3c
00000050: c1bf 5abd 3cb8 9cbd 8748 8b3c 7dda 223d
00000060: 9360 2abd 85c6 02bd 23f7 ecbc ab5a 1dbd
00000070: 8a78 4bbd 40fa 383d 0750 a2bd 3318 41bb
00000080: 4935 3b3d 983f d4bc 28cf d3bb 70c8 86bd
00000090: 3bd4 96bd fa26 7cbd d720 4b3d 66db d4bc
000000a0: b79d d839 0036 70bd c9d6 e5bc ef4d 86bd
000000b0: d32b 923d 0512 1dbd 56c9 9e3c 6d34 b53d
000000c0: 133d ef3c 5e3c 3fbd 31ac 5f3c 1b84 c7bd
000000d0: 927c a13a a8eb c3bd 6a19 c5bc 80cb 183c
000000e0: 2b39 a83b 5724 903d 7a3b 033d 0afc 823d
000000f0: 6702 77bd 49c0 013b d5cc 363d 707c 81bd
00000100: 73ce 0f3d 4097 8bbc b3bf c1bc d22d 993d
00000110: a764 eb3c a786 2cbc dccc 903d 5b5b 1ebd
00000120: 49f8 c53d 63b8 01bd 9f22 0e3d 9a28 ecbb
00000130: 4b2c a23d 3079 e5bb 4b87 bfbc 2761 1e3d
00000140: 230e 453d 1e76 99bd f81b f33d 3a15 e73c
00000150: 8ab2 a53d 2e1d c93c 72e7 de3d ea6d 87bd
00000160: 5a6a 9fbd 8a71 db3d 07fa 64bd 4737 b93c
00000170: 986c 09bd 6037 bdbc 452e 78bc edd4 903c
00000180: 1232 933d cd85 603d 9a33 cc3a b0b6 373c

network.action_value.4.weight f4 [9, 100]
0.035601117 -0.08091547 0.06606966 -0.059990626 0.04490154 0.031015087 -0.04513215 0.008517769
0.082855366 0.09270803 -0.06612911 -0.013088335 -0.09713193 0.013905831 0.014013088 0.063502684
0.054224692 0.049138404 -0.042717576 0.018697735 0.09102827 0.0032627662 -0.08419806 0.037305836
0.015141857 -0.013350946 0.10205508 0.046361275 0.094562344 0.06326143 -0.06457543 0.042735722
-0.05760965 0.08597942 -0.06843706 -0.0053349854 0.09684831 0.0155066615 0.049637087 -0.063125625
0.039127335 -0.043531597 -0.09320878 0.07206425 0.08617228 -0.110503085 -0.0625898 -0.01631558
0.06906545 -0.037842967 0.056302473 0.019121898 0.024446832 -0.05590588 0.072890654 -0.10420816
-0.102896035 0.010199904 0.041760564 -0.07087314 0.020302583 -0.038169753 0.08265213 0.023307383
0.082647815 -0.007148421 0.03947991 0.011170677 -0.099609055 0.03377197 -0.010563514 0.06201489
0.034947835 0.09332856 -0.075875275 0.025182525 -0.075302675 -0.010131359 -0.0013857094 0.08952144
-0.0071808337 -0.0032941948 -0.10802387 -0.036429968 -0.04984455 0.10399965 -0.017490834 -0.059558377
-0.0633657 -0.02268287 -0.006070887 -0.119762644 0.0020736195 -0.073651515 -0.076379076 -0.059745144
-0.077332996 -0.05112606 -0.055884328 0.057719156 -0.047891926 -0.023109794 0.03078792 -0.079071976
-0.07502015 0.08044062 -0.0033644915 -0.024326827 -0.029058648 -0.08611181 -0.004743755 0.028911917
-0.08048506 0.061003048 -0.08337226 -3.2628737e-05 -0.04323099 0.055427052 0.089659385 -0.039834496
0.04804545 -0.034336027 0.027449464 -0.08690127 -0.098927274 0.014077507 0.08422197 -0.018612271
-0.092662685 -0.10463266 -0.057524133 0.050694276 -0.09352362 -0.035074625 0.002468398 -0.04014672
-0.08025797 -0.07225839 -0.07418565 -0.08629795 -0.062023584 0.0994549 -0.008416482 -0.06680369
-0.022701336 -0.002646314 -0.097680785 -0.072414495 -0.03580923 0.027888555 -0.016874509 0.069019996
-0.023247465 -0.09697356 0.025260836 0.0666302 0.08100558 0.03615097 0.061308026 0.009690112
0.051036537 0.07561044 -0.018149026 -0.059580136 0.015133358 0.08505924 0.05065185 -0.06729898
0.03082776 -0.010568929 -0.07428982 0.015467453 -0.036006887 0.092266195 0.027558627 -0.018946731
0.06537921 -0.020616304 -0.0018633162 -0.08553423 0.040387 -0.062149197 -0.09103999 0.028853107
-0.048407167 0.010140672 -0.039583996 -0.023678632 -0.07202958 -0.09235076 -0.1104368 0.064027175
0.0053830203 0.042489257 -0.04410382 -0.08779955 0.0815545 -0.08912485 -0.010045481 -0.04656879
0.07493255 -0.01863022 0.045716997 0.0007864149 -0.040227126 -0.0024718768 0.08809674 0.039858498
0.04990424 -0.036483873 -0.008532489 -0.046298783 0.0589277 -0.08347012 -0.08213917 -0.09365359
-0.097631074 -0.06618897 -0.09089432 -0.019588172 -0.025139274 -0.07929018 0.02439791 0.04688103
0.09469809 0.041522365 -0.053450126 0.0012513836 0.09569998 -0.021986542 0.015735686 -0.011636031
0.03878832 -0.024211915 0.02625904 -0.09995407 -0.025011515 -0.025817836 0.0203702 -0.008546796
-0.008801621 0.0940839 0.062017154 0.07907579 0.06711906 0.05449166 0.036743924 0.07942877
-0.031400263 0.019590875 -0.08211992 -0.08977888 0.049454715 -0.08253022 -0.048378367 -0.0041719987
00000000: 7ad2 113d 03b7 a5bd 884f 873d bbb8 75bd
00000010: adea 373d 5a13 fe3c 7ddc 38bd 1d8e 0b3c
00000020: 13b0 a93d b5dd bd3d b36e 87bd 7570 56bc
00000030: 1bed c6bd 48d5 633c 2797 653c b20d 823d
00000040: b61a 5e3d 5a45 493d a0f8 2ebd fe2b 993c
00000050: 086d ba3d 22d4 553b 0870 acbd 01ce 183d
00000060: 8d15 783c edbd 5abc 4102 d13d 52e5 3d3d
00000070: e7a9 c13d 358f 813d 1f40 84bd a70b 2f3d
00000080: 19f8 6bbd fa15 b03d bb28 8cbd 1ad1 aebb
00000090: 6858 c63d a70f 7e3c 4250 4b3d 0248 81bd
000000a0: fc43 203d 304e 32bd 3fe4 bebd 6c96 933d
000000b0: 187b b03d 714f e2bd 152f 80bd 40a8 85bc
000000c0: 3072 8d3d 3a01 1bbd 6c9d 663d 87a5 9c3c
000000d0: b944 c83c 90fd 64bd b247 953d 166b d5bd
000000e0: 28bb d2bd 801d 273c 200d 2b3d f025 91bd
000000f0: 9a51 a63c e357 1cbd 8545 a93d 20ef be3c
00000100: 4243 a93d 4d3d eabb b0b5 213d 3705 373c
00000110: d5ff cbbd 7a54 0a3d 9712 2dbc 5303 7e3d
00000120: 7625 0f3d 0b23 bf3d 7f64 9bbd 954b ce3c
00000130: 4a38 9abd 00fe 25bc b1a0 b5ba 0457 b73d
00000140: 334d ebbb 6be3 57bb 9e3b ddbd 9737 15bd
00000150: cd29 4cbd c5fd d43d f048 8fbc 7cf3 73bd
00000160: e0c5 81bd 6dd1 b9bc 4bee c6bb 1e46 f5bd
00000170: 90e5 073b 9bd6 96bd a26c 9cbd 53b7 74bd
00000180: c360 9ebd 8f69 51bd f7e6 64bd ec6a 6c3d
00000190: 532a 44bd c050 bdbc f336 fc3c 7df0 a1bd
000001a0: 2aa4 99bd 0dbe a43d cd7e 5cbb 0e49 c7bc
000001b0: 670c eebc 635b b0bd 8071 9bbb afd8 ec3c
000001c0: 5ad5 a4bd 55de 793d 13bf aabd d7da 08b8
000001d0: fb12 31bd 7a07 633d 579f b73d 7f29 23bd
000001e0: 4ecb 443d efa3 0cbd b3dd e03c 4bf9 b1bd
000001f0: 629a cabd 58a5 663c 917c ac3d c378 98bc
00000200: efc5 bdbd a649 d6bd 6d9e 6bbd cda4 4f3d
00000210: 5089 bfbd 69aa 0fbd d9c4 213b e370 24bd
00000220: 4a5e a4bd 35fc 93bd a5ee 97bd fbbc b0bd
00000230: 710c 7ebd 03af cb3d 49e5 09bc 5fd0 88bd
00000240: 27f8 b9bc c86d 2dbb dd0c c8bd 0d4e 94bd
00000250: b3ac 12bd 8a76 e43c 693c 8abc 5b5a 8d3d
00000260: 7871 bebc 139a c6bd d0ef ce3c 6a75 883d
00000270: 41e6 a53d 0a13 143d 201e 7b3d 47c3 1e3c
00000280: b00b 513d a5d9 9a3d 44ad 94bc 4d0a 74bd
00000290: e7f1 773c 8a33 ae3d 5078 4f3d 0cd4 89bd
000002a0: 808a fc3c 4d29 2dbc 4325 98bd 336b 7d3c
000002b0: f57b 13bd 0ff6 bc3d a1c2 e13c 2d36 9bbc
000002c0: 89e5 853d 86e3 a8bc 843a f4ba 922c afbd
000002d0: d76c 253d 2890 7ebd 2d73 babd 5a5d ec3c
000002e0: 9846 46bd 1025 263c d422 22bd b1f9 c1bc
000002f0: 3f84 93bd 6522 bdbd b02c e2bd ae20 833d
00000300: 0c64 b03b 3709 2e3d 35a6 34bd 40d0 b3bd
00000310: 0c06 a73d 1787 b6bd cd95 24bc eabe 3ebd
00000320: 3d76 993d 679e 98bc bf41 3b3d 6927 4e3a
00000330: 33c5 24bd 36ff 21bb 106c b43d aa42 233d
00000340: 6368 4c3d 1d70 15bd dacb 0bbc cba3 3dbd
00000350: 2c5e 713d 62f2 aabd 9538 a8bd 74cd bfbd
00000360: cdf2 c7bd 158e 87bd cd26 babd 6077 a0bc
00000370: e1f0 cdbc e462 a2bd 20de c73c 5306 403d
00000380: 12f1 c13d 5b13 2a3d 85ee 5abd 7705 a43a
00000390: 5afe c33d 1f1d b4bc 20e8 803c 0da5 3ebc
000003a0: 80e0 1e3d 1158 c6bc 331d d73c b8b4 ccbd
000003b0: f3e4 ccbc ed7f d3bc 68df a63c dc07 0cbc
000003c0: ad34 10bc 0faf c03d b305 7e3d 7df2 a13d
000003d0: b875 893d a632 5f3d cc80 163d 8dab a23d
000003e0: 909d 00bd 0b7d a03c 7d2e a8bd fddd b7bd
000003f0: 0791 4a3d 9b05 a9bd 6528 46bd 43b5 88bb

network.action_value.4.bias f4 [9]
-0.047397595 0.06112279 0.0013764312 0.022588374 -0.015538972 -0.08508552 -0.073597215 0.016194731
-0.009473554
00000000: fb23 42bd e45b 7a3d 5e69 b43a 410b b93c
00000010: 2c97 7ebc 5141 aebd 23ba 96bd d0aa 843c
00000020: f736 1bbc
