Pts/dqn_trainer_metadrive_easy.pt (torch, 151481 bytes, 6 tensors)

action_value.0.weight f4 [100, 259]
0	0xbc711a46	-0.014715737
1	0x3d41c37b	0.047305565
2	0xbd4da1da	-0.05020318
3	0xbd322e9a	-0.043501474
4	0x3d02a472	0.03189511
5	0xbc541663	-0.012944791
6	0xbc9af25e	-0.018914398
7	0x3c31057e	0.010804532
8	0xbd380841	-0.044929747
9	0xbccee18e	-0.025254037
10	0x3bbba3c6	0.0057263104
11	0xbd29ef75	-0.04148813
12	0x3bf01cbd	0.0073276446
13	0xbd3823cb	-0.04495601
14	0xbcfb05cd	-0.030642414
15	0xbc137f37	-0.009002498
16	0xbd41df09	-0.047331844
17	0xbd2aab09	-0.041667018
18	0xbd69a6ff	-0.057044026
19	0x3aa31eba	0.001244507
20	0xbd27c988	-0.04096368
21	0xbd712a7a	-0.0588784
22	0xbc525aa3	-0.012838992
23	0xbd5de6e6	-0.05417528
24	0x3c7ec522	0.01554993
25	0xbd5b923e	-0.053606264
26	0x3c6eef55	0.014583428
27	0x3c5c5564	0.013448093
28	0x3bde88da	0.0067912163
29	0xb78f7ae7	-1.710416e-05
30	0x3d3a4f76	0.045485936
31	0x3d19eeac	0.03758113
32	0x3d6fcee9	0.058546934
33	0xbd1dcf5d	-0.038527835
34	0x3cd79148	0.026314393
35	0x3cca0a35	0.02466307
36	0x3d18023f	0.037111517
37	0x3d058e6c	0.032606527
38	0xbd731237	-0.059343543
39	0x3cfe3916	0.03103308
40	0xbd11ae04	-0.035566345
41	0x3d6e06e3	0.058112036
42	0x3c2f775f	0.010709613
43	0xbd091642	-0.033468492
44	0x3d56f6a5	0.052481312
45	0xbd6ac60e	-0.057317786
46	0x3d088007	0.03332522
47	0xbcde7499	-0.027155207
48	0xb8bc76b5	-8.9866495e-05
49	0xbc98d18b	-0.018654605
50	0x3cc0dc8f	0.02354267
51	0x3d7e8c7a	0.062145688
52	0xbd16dcbe	-0.03683161
53	0x3d392776	0.04520365
54	0xb88103a7	-6.15188e-05
55	0x3c8dd5b2	0.017313812
56	0x3d250a69	0.04029313
57	0xbadbef56	-0.0016779702
58	0x3c3f32b7	0.011669806
59	0x3d4e3d0b	0.050351184
60	0x3b7b7447	0.0038368867
61	0xbd4c258e	-0.049840502
62	0xbc8d8638	-0.017275915
63	0x3d6c9f60	0.05776918
64	0x3c485e40	0.012229502
65	0xbcabe07e	-0.02098107
66	0xbd62d320	-0.055377126
67	0xbcf214af	-0.029550878
68	0xbd0e0f3c	-0.034682497
69	0xbca99084	-0.020698793
70	0xbd10b80c	-0.03533177
71	0x3d4edbd4	0.050502613
72	0xbafdcdb3	-0.0019363671
73	0x3d1237c4	0.035697713
74	0x3c47033f	0.01214677
75	0x3cf379cc	0.029721163
76	0x3bef9c31	0.0073123206
77	0xbd5659ef	-0.05233186
78	0x3d705995	0.058679182
79	0xbcfa82a2	-0.030579869
80	0x3cfabd56	0.03060786
81	0xbd56ba2d	-0.052423645
82	0xbb693618	-0.003558522
83	0xbce46b2d	-0.027883137
84	0x3d5764f6	0.05258652
85	0xbd326ff4	-0.043563798
86	0xbd07d436	-0.033161364
87	0xbd3a0726	-0.045416974
88	0xbd040542	-0.032231577
89	0x3d07c359	0.033145282
90	0x3ce10b70	0.027471274
91	0x3cfe6872	0.031055663
92	0xbd53a5f2	-0.05167193
93	0xbd53f222	-0.051744588
94	0x3d554f24	0.052077428
95	0xbd33cf62	-0.043898948
96	0x3d22c016	0.03973397
97	0x3c949aa7	0.01814015
98	0xbce3e091	-0.027817043
99	0xbcd04f74	-0.025428511
100	0x3d8183ca	0.06323965
101	0xbc825146	-0.015907895
102	0x3c38487f	0.011247753
103	0x3d8121e3	0.063052915
104	0xbd39ba6f	-0.045343813
105	0x3c6e9d25	0.014563833
106	0x3d759025	0.05995192
107	0xbcf40dc0	-0.029791713
108	0x3d1df074	0.038559392
109	0x3d2b887b	0.041878205
110	0xbd0531ad	-0.032518078
111	0xbc36ed5c	-0.011164989
112	0xbc21c146	-0.00987274
113	0xbcba125f	-0.022713838
114	0x3d596662	0.053076155
115	0xbd46b760	-0.048514724
116	0x3c180541	0.009278596
117	0xbc738d4a	-0.014865229
118	0x3cf99fdd	0.030471737
119	0x3d385b41	0.0450089
120	0x3d41a4b6	0.04727622
121	0x3d0df807	0.034660365
122	0x3d6ccdec	0.05781357
123	0xbd4a6d51	-0.04942066
124	0x3c6db8c2	0.014509382
125	0x3cfb80b2	0.030701015
126	0x3d614e96	0.055006586
127	0xbce45651	-0.02787319
128	0xbae03436	-0.0017105404
129	0x3d12e01c	0.03585826
130	0xbd5f6be3	-0.05454625
131	0xbd7042d7	-0.058657493
132	0xbce250a7	-0.027626349
133	0xbb4fced6	-0.0031708977
134	0xbd1d37c7	-0.03838327
135	0x3cf4bdff	0.029875753
136	0xbd5183b3	-0.05115099
137	0x3be3a860	0.006947562
138	0xbd36b3d6	-0.0446051
139	0xbd579a96	-0.05263766
140	0x3cd94d9a	0.026526261
141	0x3bc7f55b	0.0061022467
142	0x3d4e5a06	0.05037882
143	0xbc34be58	-0.01103171
144	0x3bc1f726	0.005919355
145	0x3cba0b28	0.022710398
146	0x3d2d82a4	0.042360917
147	0xbd545acb	-0.0518444
148	0x3cb1cacb	0.021703145
149	0x3d112d77	0.03544375
150	0x3c9eeb98	0.01939945
151	0x3d5a180a	0.05324558
152	0xbd5c7b0b	-0.05382828
153	0x3d847f00	0.06469536
154	0x3d7ad147	0.06123474
155	0xbca16e0d	-0.019705797
156	0x3d6c3c11	0.05767447
157	0xbc12caf0	-0.008959517
158	0x3d71d840	0.059044123
159	0x3cd16cd1	0.025564583
160	0xbcd3d2ce	-0.025857355
161	0xbd0af9a3	-0.03392948
162	0xbd15fd37	-0.036618438
163	0xbc80a507	-0.015703691
164	0xbb069525	-0.0020535674
165	0xbd4a39b7	-0.049371447
166	0xbd3f7cfc	-0.046750054
167	0xbd0b4031	-0.033996765
168	0x3c952055	0.018203894
169	0x3cdb8157	0.026795072
170	0xbb5485ab	-0.0032428305
171	0x3cb6b4f3	0.02230308
172	0xbca8ab2d	-0.020589435
173	0x3d75c301	0.060000423
174	0x3bedea23	0.0072605773
175	0xba0da0aa	-0.0005402664
176	0x3d473cf0	0.0486421
177	0xbc8d9a79	-0.017285572
178	0x3d7ae323	0.06125177
179	0x3a6347c1	0.0008670055
180	0x3cc6985a	0.024242569
181	0x3d55aced	0.052166868
182	0xbcf8536b	-0.030313214
183	0x3d46fdce	0.04858189
184	0xbd718928	-0.058968693
185	0x3d06a632	0.03287334
186	0xbc73be53	-0.01487692
187	0x3c937752	0.018001232
188	0xbd0ccdc3	-0.034375917
189	0xbba28260	-0.0049593896
190	0x3d5e34da	0.054249622
191	0x3c84850c	0.016176723
192	0x3d09cc95	0.03364237
193	0xbd6a0fc4	-0.05714394
194	0x3c483831	0.012220428
195	0x3d61915d	0.05507027
196	0xbd0730af	-0.033005413
197	0xbd479672	-0.04872746
198	0x3d0bed44	0.03416182
199	0xbc135a58	-0.008993708
200	0x3c9455c9	0.018107312
201	0xbd53f1de	-0.051744334
202	0x3d53e15b	0.051728588
203	0x3bae182f	0.0053129415
204	0x3cd5f49c	0.026117615
205	0x3d02b461	0.031910304
206	0x3d10c606	0.0353451
207	0xbd63cf92	-0.055617876
208	0x3ba89687	0.0051448974
209	0x3d1de0d4	0.03854449
210	0xbc863e8f	-0.016387252
211	0xbd07d49d	-0.03316175
212	0x3c81e0b3	0.015854215
213	0xbd51808f	-0.051147994
214	0x3cfab3ca	0.030603308
215	0x3d11f9e6	0.035638712
216	0x3b01e288	0.001981886
217	0xbbf7949d	-0.007555558
218	0x3d36a063	0.04458655
219	0x3d76a35e	0.060214393
220	0xbc03dc4f	-0.008048131
221	0x3d5d0368	0.053958327
222	0xbd5b86d0	-0.053595364
223	0xbcdec021	-0.027191224
224	0x3cc6affc	0.024253838
225	0x3d7b05d0	0.06128484
226	0x3d565048	0.052322656
227	0xbd4a5999	-0.049401853
228	0x3c325493	0.010884422
229	0x3caa1efd	0.02076673
230	0x3c9d3758	0.019191429
231	0xbc9f1277	-0.019417984
232	0x3d34da0f	0.04415327
233	0x3b8621ae	0.0040933704
234	0xbcb84e8c	-0.022498392
235	0xbc97a87d	-0.018512959
236	0x3d272628	0.040807873
237	0x3d1b6c25	0.03794493
238	0xbd4f40ad	-0.05059879
239	0x3d07cf8b	0.033156913
240	0x3d649009	0.055801425
241	0x3d49bda3	0.049253117
242	0x3c6fdbee	0.014639838
243	0xbbe2acf5	-0.0069175907
244	0xbd1f9e3d	-0.038969267
245	0x3d8164af	0.06318032
246	0x3ca2f165	0.019890497
247	0x3c238455	0.009980281
248	0x3d26b296	0.040697657
249	0x3d15e1f1	0.036592428
250	0x3d480b9b	0.048839193
251	0xbcc2a14a	-0.02375855
252	0x3cf892c3	0.030343419
253	0xbd31c75b	-0.04340301
254	0x399d24f2	0.000299729
255	0x3ca44079	0.020050274

action_value.0.bias f4 [100]
0	0x3d3bf54a	0.045888223
1	0xbd17d835	-0.037071425
2	0x3c49c7b4	0.012315679
3	0x3baac833	0.005211854
4	0x3c97cdf9	0.018530833
5	0xbb9e4904	-0.0048304815
6	0x3c9d3c2f	0.019193737
7	0x3cce964d	0.025218153
8	0x3c3208a4	0.010866318
9	0x3d3355f4	0.043783143
10	0xbd5fa9c5	-0.054605264
11	0xbd5cf740	-0.053946733
12	0xbcfe50d5	-0.031044403
13	0x3d5e86d5	0.054327805
14	0x3d3ec9cc	0.046579167
15	0x3c012d8e	0.007884396
16	0x3d686ed3	0.056746315
17	0xbd1c5fb5	-0.03817721
18	0xbcf8e526	-0.030382704
19	0x3d76ce69	0.06025544
20	0x3d53ed05	0.05173971
21	0xbbaee979	-0.0053378907
22	0xbd5937a8	-0.053031594
23	0x3cca2520	0.024675906
24	0xbcdea370	-0.027177542
25	0x3cb28510	0.021791965
26	0x3d3b0bdf	0.045665618
27	0xba81c0b2	-0.0009899347
28	0xbcb4d5ee	-0.022074666
29	0xbccd2f8d	-0.025047088
30	0xbcb6ac6b	-0.022299012
31	0x3d78b8cf	0.060723122
32	0x3d47f905	0.048821468
33	0x3cf09292	0.029366765
34	0xbc9f0d9c	-0.01941567
35	0x3d1a565a	0.037680008
36	0xbc6b8b58	-0.014376484
37	0xbd10bce7	-0.0353364
38	0xbcbabd4c	-0.022795342
39	0x3ca69315	0.020333806
40	0xbcd5cfc8	-0.026100054
41	0x3d78e5ac	0.060765907
42	0xbcd94c45	-0.026525626
43	0x3d198b33	0.037486266
44	0x3d47e887	0.04880574
45	0x3cc7fd15	0.024412671
46	0x3d285661	0.041098002
47	0x3d1c2de2	0.038129695
48	0x3bdd091f	0.006745472
49	0x3d299615	0.041402895
50	0x3cff7c08	0.031187072
51	0x3d71b826	0.05901351
52	0x3d59e8a0	0.053200364
53	0x3cca1466	0.02466793
54	0x3d6b57fb	0.05745695
55	0xbd4ba32b	-0.049716156
56	0xbd35c7ec	-0.044380113
57	0x3d5b089a	0.053475
58	0xbb5772a3	-0.0032874725
59	0x3b865cea	0.0041004317
60	0xbc027dc8	-0.007964559
61	0xbccaa7f6	-0.024738293
62	0xbd34de83	-0.044157516
63	0x3bf79c56	0.0075564785
64	0x3d5cf484	0.053944126
65	0x3d694a05	0.056955356
66	0xbc67e653	-0.014154035
67	0x3d520e41	0.051283125
68	0xbd2fe238	-0.04294035
69	0x3d4a8a0a	0.04944805
70	0xbcaafa2a	-0.02087124
71	0xbced343f	-0.028955577
72	0x3cd70ced	0.02625128
73	0x3cc3a92a	0.023884375
74	0xbbccdebd	-0.0062521384
75	0xbd40e787	-0.0470958
76	0x3d1fbbb1	0.038997356
77	0x3d1cfb69	0.0383257
78	0x3c745c2a	0.014914552
79	0xbd2377c7	-0.03990915
80	0xbd19f715	-0.03758915
81	0x3d4b938a	0.04970125
82	0xbd242f1f	-0.040084
83	0x39e3da84	0.0004345962
84	0x3c67053a	0.014100367
85	0xbd3df687	-0.046377685
86	0xbd529227	-0.051408913
87	0xbb5034bb	-0.003176971
88	0x3c2217c9	0.009893366
89	0x3d1782db	0.036990028
90	0xbcfeb1e8	-0.031090692
91	0x3b3c08e8	0.0028691832
92	0xbd6c9042	-0.057754762
93	0x3c6010ca	0.013675878
94	0x3cd0bccd	0.025480652
95	0xbbde0d15	-0.006776462
96	0x3d38013a	0.044923045
97	0x3d69c705	0.057074565
98	0xbcc93802	-0.02456284
99	0xbd0c3449	-0.03422955

action_value.2.weight f4 [100, 100]
0	0x3d0eae23	0.03483404
1	0xbdab19af	-0.08354508
2	0x3cf5eca7	0.030020071
3	0x3cacf820	0.021114409
4	0xbd73fd80	-0.05956793
5	0xbd595310	-0.05305773
6	0xbd6ee29d	-0.058321584
7	0xbca8a707	-0.020587457
8	0x39bce800	0.00036031008
9	0xbd75d907	-0.060021427
10	0xbd853c97	-0.06505697
11	0x3c0c9400	0.008580208
12	0x3d120bd7	0.035655823
13	0x3c03975a	0.0080316905
14	0xbd2aa46a	-0.041660704
15	0xbd85dff3	-0.065368555
16	0xbda17353	-0.078833245
17	0x3c0abb40	0.008467495
18	0xbd545fe0	-0.051849246
19	0x3dbfced0	0.09365618
20	0x3abd4000	0.0014438629
21	0x3d96a0b3	0.0735487
22	0x3d906b5d	0.07051728
23	0x3da17bfd	0.07884977
24	0xbda14607	-0.07874685
25	0x3d8ae6f0	0.06782329
26	0x3c9bf84d	0.019039297
27	0xbd7c73da	-0.061633922
28	0xbd98bf9f	-0.07458424
29	0xbdc7909a	-0.097443774
30	0x3d656d03	0.056012165
31	0x3dca701b	0.09884664
32	0xbd9b7d18	-0.07592219
33	0xbc9c532d	-0.01908263
34	0xbaba1e00	-0.0014199615
35	0x3cec843a	0.028871644
36	0xbd9669c8	-0.07344395
37	0x3d1cad4d	0.03825121
38	0x3d745d5a	0.05965934
39	0x3cf838ba	0.030300487
40	0x3cb234da	0.021753717
41	0x3d1cd430	0.038288295
42	0x3cd00380	0.025392294
43	0xbd515ce7	-0.05111399
44	0xbda7d102	-0.08194162
45	0x3cfafd0d	0.030638242
46	0xbce5e0d3	-0.028061306
47	0xbb1b3367	-0.0023681761
48	0x3c64fc80	0.013976216
49	0xbbdc404d	-0.0067215324
50	0xbd42f90d	-0.047600795
51	0xbd81db4d	-0.063406564
52	0xbc976960	-0.018482864
53	0xbad92600	-0.0016567111
54	0x3bda6967	0.006665397
55	0x3d90462d	0.07044635
56	0x3ca1641a	0.019701052
57	0xbb2dd39a	-0.002652383
58	0x3d829927	0.06376868
59	0x3ccddd27	0.025129868
60	0x3d1bc417	0.038028803
61	0x3dbaab72	0.09114732
62	0x3d818c48	0.06325585
63	0x3d9f1a67	0.07768708
64	0xbd13e91a	-0.036110975
65	0xbd79a65a	-0.06094966
66	0x3cb81e20	0.022475302
67	0x3d71c853	0.059028935
68	0x3d934a0f	0.0719186
69	0xbc847e8d	-0.016173625
70	0x3db6475a	0.08900328
71	0xbdbbd740	-0.09171915
72	0x3dc4adf5	0.09603492
73	0x3d28e35a	0.041232444
74	0xbd3ca680	-0.046057224
75	0xbd920153	-0.07129159
76	0x3a62af33	0.00086473225
77	0xbb31b69a	-0.0027116896
78	0x3dc51905	0.09623913
79	0x3d9228d2	0.07136692
80	0xbc113f4d	-0.00886519
81	0xbd2bfc7a	-0.041988827
82	0x3a156a67	0.0005699754
83	0xbd7b3fb7	-0.06134006
84	0x3db3a69b	0.08772012
85	0x3b12a000	0.00223732
86	0xbbe24acd	-0.0069058896
87	0xbd598613	-0.05310638
88	0x3d071b80	0.03298521
89	0x3b22e933	0.0024858236
90	0xbb6b3e33	-0.0035895228
91	0x3d032313	0.03201587
92	0x3d5b27ed	0.053504873
93	0xbd15f373	-0.036609124
94	0xbb3dd9cd	-0.002896893
95	0xbd805563	-0.06266286
96	0xbd969337	-0.07352298
97	0xbd594000	-0.05303955
98	0xbdb26d38	-0.08712238
99	0xbd5993aa	-0.05311934
100	0xbda239a3	-0.079211496
101	0xbd70a55d	-0.058751453
102	0xbdb4918f	-0.088168256
103	0x3c6680f3	0.01406883
104	0xbcd8df47	-0.026473654
105	0xbd13efbd	-0.036117304
106	0x3d70dff0	0.058807313
107	0x3d7ec8ed	0.062203337
108	0xbd9ce7bd	-0.07661388
109	0xbdb39350	-0.08768332
110	0xbd5ff740	-0.054679155
111	0x3ccd7040	0.025077939
112	0xbd36d59d	-0.04463731
113	0xbd55e690	-0.052221835
114	0xbdb9a9a2	-0.09065558
115	0xbb87354d	-0.004126227
116	0xbd89d220	-0.06729531
117	0x3c4fa24d	0.012672973
118	0xbccb3ee0	-0.024810255
119	0xbc45185a	-0.012029732
120	0x3d87f922	0.06639315
121	0x3c177a33	0.009245443
122	0x3cc3439a	0.023835946
123	0x3c9f14d3	0.01941911
124	0xbd24ed3d	-0.04026531
125	0xbc8ede93	-0.017440116
126	0x3c2113da	0.009831393
127	0x3cde2067	0.02711506
128	0xbb0f149a	-0.0021832348
129	0xbd8ed80d	-0.06974802
130	0xbd8ddbb8	-0.06926674
131	0xbd3036cd	-0.043021012
132	0xbd2f94a7	-0.042866375
133	0x3dc36683	0.09541037
134	0x3c122240	0.008919299
135	0x3d62842a	0.055301823
136	0xbd1d50a0	-0.038406968
137	0xbdc2f735	-0.09519807
138	0xbce05c80	-0.027387857
139	0xbbc5ca9a	-0.006036115
140	0x3d4fc3fd	0.05072402
141	0xbdbd2faa	-0.09237607
142	0xbda646fa	-0.081190065
143	0x3c59e4b3	0.013299155
144	0x3d5a3af0	0.053278863
145	0xbc062767	-0.008188105
146	0xbd1569d3	-0.036477875
147	0x3d1b447d	0.037907112
148	0x3d88a28b	0.066716276
149	0x3d8c628a	0.06854732
150	0x3c92f45a	0.017938782
151	0xbd5b83ba	-0.05359242
152	0x3ba818b3	0.0051298975
153	0x3cd51d33	0.0260149
154	0x3d4a3270	0.049364507
155	0xbcec2360	-0.028825462
156	0xbda24f4d	-0.07925282
157	0x3db25f58	0.087095916
158	0x3dabf8a0	0.08397031
159	0x3d5b69bd	0.053567637
160	0x3d4679a7	0.04845586
161	0x3c6f9700	0.014623404
162	0x3d7ad28d	0.061235953
163	0xbdc52e85	-0.096280135
164	0xbcf77ec0	-0.030211806
165	0x3c2d181a	0.010564828
166	0xbdb57bdd	-0.08861516
167	0x3d7966d0	0.060889065
168	0x3d60ed00	0.05491352
169	0x3d80d137	0.062899046
170	0xbd8d6600	-0.069042206
171	0xbdc866cf	-0.09785234
172	0x3caff120	0.021477282
173	0xbcc11dcd	-0.02357378
174	0xbd94c265	-0.0726364
175	0xbda00be3	-0.07814767
176	0xbcfef580	-0.031122923
177	0xbda2e235	-0.07953302
178	0x3d8f3933	0.06993332
179	0x3daa2e78	0.083096445
180	0x3cdff1ed	0.027337039
181	0x3c12e71a	0.008966232
182	0xba49f267	-0.0007703662
183	0xbd393920	-0.045220494
184	0xbc9e113a	-0.019295324
185	0x3dcc0647	0.09962135
186	0xbd00955d	-0.031392444
187	0x3d991d1f	0.074762575
188	0x3d878077	0.066162996
189	0xbcf9ede7	-0.030508948
190	0x3db1638b	0.086615644
191	0x3d2e41a0	0.042543054
192	0xbd407ca7	-0.046993878
193	0xbba1bce7	-0.004935849
194	0xbd92f410	-0.071754575
195	0x3cf93acd	0.030423546
196	0x3d37ba4d	0.044855405
197	0xbc8ed1ad	-0.017433966
198	0x3d885a32	0.066578284
199	0x3db963e2	0.09052254
200	0x3d8c325e	0.06845544
201	0xbd83f95f	-0.06444048
202	0x3d5f6c1a	0.054546453
203	0xbdb3924f	-0.087681405
204	0x3dcb3df0	0.09923923
205	0xbc0cf84d	-0.008604121
206	0xbd97a2b9	-0.07404084
207	0x3dbbcbf8	0.09169763
208	0x3da4e4ef	0.08051478
209	0x3d79a468	0.060947806
210	0xbdca49a3	-0.09877326
211	0xbd977b6d	-0.073965885
212	0xbdc874cb	-0.097879015
213	0x3d08715d	0.033311237
214	0xbc1d3123	-0.009594235
215	0x3d36e1dd	0.044648994
216	0xbc339ed3	-0.01096316
217	0x3d3bff9a	0.045898058
218	0x3d324377	0.04352137
219	0x3d495c37	0.04916021
220	0xbd66a878	-0.056313008
221	0xbdb67079	-0.08908171
222	0x3d5cfd03	0.05395223
223	0x3dad27d1	0.0845486
224	0xbd9fc39d	-0.07800982
225	0xbc3e0c1f	-0.01159957
226	0xbd83da73	-0.0643815
227	0xbd9b82af	-0.07593285
228	0x3d8601e7	0.065433316
229	0xbdcf68c2	-0.10127403
230	0xbc418bcf	-0.011813118
231	0x3dbea359	0.093085
232	0xbd03316c	-0.032029554
233	0x39db4782	0.00041824213
234	0x3d9881af	0.0744661
235	0xbced675d	-0.028979952
236	0x3bc3f05f	0.005979582
237	0x3d780cb7	0.060559
238	0x3cd23438	0.025659665
239	0x3c23cba3	0.009997281
240	0xbc8a5f8e	-0.016891267
241	0x3d853bdd	0.06505559
242	0xbd43380d	-0.047660876
243	0xbd96bf3b	-0.07360693
244	0x3d9a39e9	0.07530577
245	0x3d841867	0.06449967
246	0xbd8614bb	-0.06546923
247	0x3dca2f62	0.09872319
248	0x3d562e78	0.05229041
249	0x3a170737	0.0005761268
250	0x3cb95d57	0.022627516
251	0xbcc38e6d	-0.023871625
252	0x3da8f357	0.082495384
253	0x3c7ad93a	0.01531058
254	0x3c59f3e4	0.013302777
255	0xbc48e31e	-0.01226118

action_value.2.bias f4 [100]
0	0xbdae9c12	-0.08525862
1	0x3d56f587	0.052480247
2	0xbc19d303	-0.009388688
3	0x3dc40c9a	0.09572716
4	0x3dc41887	0.09574991
5	0x3d5d13d9	0.053974006
6	0xbd028add	-0.03187071
7	0x3d08a062	0.033356078
8	0xbce0fe14	-0.027464904
9	0xbdad6b95	-0.08467785
10	0xbd1c56e7	-0.038168814
11	0x3d901653	0.07035508
12	0x3dbe9cbf	0.09307241
13	0x3bc0e633	0.005886817
14	0x3daf8067	0.08569413
15	0xbc6fecaa	-0.014643827
16	0x3ca1bb8d	0.019742751
17	0xbcf3c23a	-0.0297557
18	0x3db67ac7	0.08910137
19	0x3bedaaed	0.007253042
20	0xbdc235a3	-0.09482887
21	0x3d8071ff	0.06271743
22	0xbd262323	-0.040560853
23	0xbd6adf4a	-0.05734185
24	0xbd05e45d	-0.032688487
25	0x3d4a0fb0	0.049331367
26	0xbd851ce7	-0.06499653
27	0x3dc1d68c	0.0946475
28	0xbcb01980	-0.021496534
29	0x3dcde5d1	0.100535996
30	0xbd76d353	-0.06026013
31	0x3d1a2649	0.037634168
32	0xbd961c9a	-0.07329674
33	0x3d9449e7	0.07240658
34	0x3d85355b	0.065043174
35	0x3c0adf5a	0.008476103
36	0xbd5a18f3	-0.05324645
37	0x3bb90cc4	0.0056472737
38	0x3d0de2b8	0.034640044
39	0xbd9f4e64	-0.07778624
40	0xbc3be2a6	-0.011467611
41	0x3d58679d	0.05283319
42	0xbd9f07f4	-0.07765189
43	0x3d33c522	0.043889172
44	0x3d9f5b17	0.07781046
45	0x3d0fa1cc	0.03506641
46	0xbdc633f9	-0.09677882
47	0x3ce0d7c4	0.027446635
48	0x3d548510	0.05188471
49	0xbd93f8e3	-0.07225206
50	0x3dad764d	0.0846983
51	0xbbc6e5a0	-0.006069854
52	0xbd8fa6e1	-0.070142515
53	0xbc6e9a0d	-0.014563096
54	0x3c6960eb	0.014244298
55	0xbd9bef68	-0.076140225
56	0xbdc089bd	-0.094012715
57	0xbd0bddbd	-0.034147013
58	0xbbca6c3d	-0.006177454
59	0x3cd9e2db	0.02659743
60	0x3d88ff88	0.06689364
61	0x3d6a8926	0.0572597
62	0x3dc9beb1	0.098508246
63	0x3c93273a	0.01796304
64	0xbc77a9a8	-0.015116133
65	0xbd8474b8	-0.06467575
66	0xbcaa7df2	-0.020812009
67	0xbd16f6a5	-0.036856312
68	0x3d67495f	0.056466457
69	0xbdb66bda	-0.0890729
70	0x3aaf80cd	0.0013389826
71	0xbd2c17d7	-0.042014923
72	0xbcfe5547	-0.031046523
73	0xbd952aa0	-0.07283521
74	0xbd846d4d	-0.0646616
75	0xbd1ae377	-0.037814584
76	0x3dcacee4	0.099027425
77	0xbdb368f5	-0.08760253
78	0xbd908799	-0.07057113
79	0x3d01aa70	0.031656682
80	0x3dac12f9	0.08402056
81	0xbc209fe3	-0.009803745
82	0x3d9ff284	0.07809928
83	0x3b8142b3	0.0039447187
84	0xbd8513fb	-0.064979516
85	0x3d82e9c2	0.06392242
86	0xbc22d7e9	-0.009939172
87	0x3d907f70	0.07055557
88	0x3d854df3	0.06509008
89	0xbc4a899f	-0.012361913
90	0x3bb10123	0.005401747
91	0xbcf442ac	-0.029816948
92	0x3b1e98b0	0.0024199896
93	0xbd92c91a	-0.07167263
94	0x3d307663	0.043081652
95	0xbbf2b298	-0.007406544
96	0xbdaf8882	-0.08570959
97	0xbda5b524	-0.080911905
98	0xbcc2aba8	-0.023763493
99	0x3d02e09c	0.031952485

action_value.4.weight f4 [9, 100]
0	0xbdb7bdad	-0.08971725
1	0x3d182c13	0.037151407
2	0x3d1d2f10	0.03837496
3	0x3da97510	0.08274281
4	0xbd7aec27	-0.06126037
5	0x3d8fddcd	0.07024727
6	0xbd6de7c7	-0.05808237
7	0xbc11e44b	-0.008904527
8	0x3db93cf7	0.09044831
9	0x3d8d18bf	0.068894856
10	0xbc84ff4a	-0.016235013
11	0xbd8c7eca	-0.068601206
12	0xbd5f6a7c	-0.05454491
13	0x3d40bd47	0.04705551
14	0x3db158be	0.08659504
15	0x3cd1cb5a	0.02560966
16	0x3d9b56f8	0.07584947
17	0xbd6d2c1a	-0.057903387
18	0x3d78c0fd	0.060730923
19	0x3d814579	0.06312079
20	0xbcd0ae07	-0.025473608
21	0x3c62fdee	0.013854487
22	0xbc3ec0cc	-0.011642646
23	0xbd791a57	-0.060816135
24	0xbd6d0400	-0.057865143
25	0x3d92d071	0.07168663
26	0x3c9e596d	0.01932975
27	0xbc0501fa	-0.008118147
28	0x3caa4ce0	0.02078861
29	0x3d9c98b6	0.07646315
30	0xbc5305da	-0.012879813
31	0xbd3e0c0a	-0.0463982
32	0x3d0fdc33	0.035122108
33	0x3ce5b3f6	0.028039914
34	0x3d3315c3	0.043721925
35	0x3d59de05	0.05319025
36	0xbd518a8d	-0.051157523
37	0x3b9f4ca8	0.004861433
38	0xbdad5650	-0.084637284
39	0x3ce12fe3	0.027488654
40	0x3d54f2bd	0.051989306
41	0xbd3f421a	-0.0466939
42	0x3d046dde	0.03233134
43	0x3d5c5463	0.053791415
44	0xbd034fc3	-0.03205849
45	0xbd4c2960	-0.049844146
46	0x3d354570	0.044255674
47	0xbd842f2d	-0.064543106
48	0x3d23df3a	0.040007807
49	0x3d988ea4	0.074490815
50	0xbd92c9f8	-0.07167429
51	0xbd27ad9b	-0.040937047
52	0xbc020472	-0.00793563
53	0x3d1716e0	0.03688705
54	0xbda3a28b	-0.07989987
55	0x3d297ae0	0.04137695
56	0x3da5d897	0.08097952
57	0xbc4aae4f	-0.01237066
58	0xbca11cb0	-0.019667
59	0x3dca5856	0.0988013
60	0x3d07d345	0.033160467
61	0x3d58a946	0.052895807
62	0x3d741812	0.059593268
63	0xbc409a9a	-0.01175561
64	0xbbc8c5fd	-0.0061271177
65	0x3d9fc512	0.0780126
66	0xbdb69939	-0.08915944
67	0xbd740644	-0.059576288
68	0x3c618085	0.013763552
69	0x3d8768e2	0.06611802
70	0xbd483647	-0.048879888
71	0xb98d8800	-0.00026994944
72	0xbce0d5a7	-0.027445627
73	0xbd146870	-0.03623241
74	0xbcc93873	-0.02456305
75	0xbc19afda	-0.009380305
76	0x3cfe01cf	0.031006722
77	0x3da022f5	0.078191675
78	0xbdb6cf53	-0.08926263
79	0xbd82d3e0	-0.06388068
80	0xbb1d6330	-0.002401542
81	0x3dc7536a	0.09732707
82	0x3c703514	0.014661092
83	0xbbbf46cd	-0.0058372975
84	0xbccd62bb	-0.025071492
85	0x3b72a521	0.0037024694
86	0xbd2b03b4	-0.04175158
87	0xbda349a5	-0.07973031
88	0xbca1d287	-0.019753708
89	0xbdc969b8	-0.098346174
90	0x3d1fa868	0.038978964
91	0xbd98ae1f	-0.07455086
92	0xbccd8477	-0.025087578
93	0xbd89e689	-0.06733424
94	0xbd139fe9	-0.036041174
95	0x3d78fe8a	0.060789622
96	0x3d8f37b6	0.06993048
97	0x3c3cbc4f	0.011519506
98	0xbbca290d	-0.0061694444
99	0xbcd85f77	-0.026412709
100	0x3d632b30	0.05546111
101	0xbd4968c3	-0.049172174
102	0x3c930bb7	0.017949922
103	0x3d1d748f	0.038441237
104	0xbd5c9be0	-0.05385959
105	0x3db3b52b	0.087747894
106	0xbdc6ad92	-0.09701075
107	0xbd732b18	-0.05936727
108	0x3d1793f5	0.037006337
109	0xbd960849	-0.07325799
110	0x3d90fea1	0.070798166
111	0xbbca8261	-0.006180093
112	0x3db54af8	0.0885219
113	0xbdc6069a	-0.09669228
114	0xbc1eb2a7	-0.009686149
115	0x3d6ca297	0.057772245
116	0xbbbfe959	-0.0058566746
117	0x3d459333	0.048236083
118	0xbd67d4ed	-0.056599546
119	0x3cdac86e	0.0267069
120	0x3d5299d3	0.05141623
121	0x3d27f90e	0.041009
122	0xbcf09760	-0.029369056
123	0xbc59298d	-0.013254535
124	0x3da5b3b0	0.08090913
125	0xbcd7838c	-0.026307844
126	0xbd774c77	-0.060375657
127	0xbdb30d62	-0.08742787
128	0x3d7156ca	0.05892066
129	0x3c994844	0.018711217
130	0xbd2d43e3	-0.04230107
131	0x3d360b48	0.044444352
132	0x3cfcc573	0.03085587
133	0x3cd24325	0.025666783
134	0x3c5b7927	0.013395584
135	0xbdc0b4f4	-0.09409514
136	0xbcf1e927	-0.029530121
137	0xbcc522f7	-0.024064524
138	0xbd88eda1	-0.06685949
139	0xbd07f14b	-0.0331891
140	0xbdbdd6ff	-0.09269523
141	0xbb8f6ffb	-0.004377363
142	0xbd722020	-0.059112668
143	0xbdbf0767	-0.09327584
144	0xbdc06db1	-0.09395922
145	0x3d39623a	0.04525969
146	0xbcd66bd5	-0.026174465
147	0xbdb106ca	-0.08643873
148	0xbccd36ba	-0.02505051
149	0x3d802df8	0.06258768
150	0xbd9f83b6	-0.07788794
151	0x3cbd5cfc	0.023115627
152	0xbd46c8d4	-0.04853137
153	0xbd9a643a	-0.07538648
154	0x3d8a61eb	0.067569576
155	0x3b336000	0.0027370453
156	0xbaf03533	-0.0018326401
157	0x3da10fd0	0.07864344
158	0x3dce1a0f	0.10063564
159	0x3d52ebdf	0.051494475
160	0x3dbf06d7	0.093274765
161	0x3d7a0d80	0.06104803
162	0xbdbcadd6	-0.09212844
163	0x3c8c27e0	0.017108858
164	0xbdac81d2	-0.08423199
165	0x3d9edba5	0.077567376
166	0x3dad5e10	0.084652066
167	0x3daf4f2c	0.08560023
168	0xbd675b45	-0.056483526
169	0x3c755e5a	0.014976108
170	0xbd45d7fd	-0.048301686
171	0x3d8ea6ef	0.06965434
172	0xbdae3653	-0.08506455
173	0xba8a8df2	-0.0010570867
174	0x3aac359a	0.0013138533
175	0x3bc2be33	0.0059430837
176	0x3c7d0b16	0.015444538
177	0xbd81870f	-0.063245885
178	0xbd2ba744	-0.041907564
179	0xbc414e21	-0.011798413
180	0x3dbf3ac9	0.09337384
181	0x3dd19119	0.10232753
182	0xbcd05eb5	-0.025435785
183	0x3cbb4b47	0.022863043
184	0xbdc1fafc	-0.094716996
185	0x3caa2425	0.020769188
186	0xbd32e805	-0.043678302
187	0xbcc39041	-0.023872497
188	0x3d5caa1a	0.05387316
189	0x3dc9b34f	0.098486535
190	0xbcc8bdea	-0.02450462
191	0xbc67a673	-0.014138806
192	0x3d7a6506	0.0611315
193	0xbda6bf35	-0.081419386
194	0x3dac59ee	0.0841559
195	0xbaa1b871	-0.0012338293
196	0xbda3be91	-0.07995332
197	0xbcf77ba2	-0.03021032
198	0x3c973338	0.01845704
199	0xbcbd57d8	-0.023113176
200	0x3cda12ad	0.026620233
201	0xbdc4aa58	-0.09602803
202	0xbd85f230	-0.06540334
203	0x3dc539b0	0.09630144
204	0x3da1efd8	0.07907075
205	0x3c9a72bf	0.018853543
206	0x3d02788d	0.031853247
207	0xbc8b7bcb	-0.017026803
208	0xbd98e0f2	-0.0746478
209	0xbd09f701	-0.033682827
210	0xbc180d2f	-0.009280487
211	0xbcb8510c	-0.022499584
212	0xbcdc52a7	-0.02689488
213	0xbd8d3233	-0.0689434
214	0xbd72c2fe	-0.05926799
215	0xbd796b90	-0.060893595
216	0xbd984b61	-0.074362524
217	0x3ca0c887	0.019626869
218	0xbdb40d7f	-0.08791637
219	0xbd22f985	-0.03978874
220	0xbda9104b	-0.08255061
221	0x3c8b49b1	0.017002912
222	0x3dc1db6a	0.09465678
223	0xbdaaa530	-0.08332288
224	0x3b00d1cd	0.00196563
225	0x3d9ae72d	0.075636245
226	0xbd999141	-0.07498408
227	0x3d935bc4	0.07195237
228	0x3dbc1f0f	0.091856115
229	0xbd8ba862	-0.06819226
230	0xbb6f2633	-0.0036491274
231	0x3d61cf32	0.055129237
232	0x3dbe3187	0.0928679
233	0x3cbc276c	0.022968017
234	0xbd13a767	-0.03604832
235	0x3dab4fe9	0.08364851
236	0x3d2d4bbd	0.042308558
237	0x3bba5806	0.0056867627
238	0x3cd4ddfb	0.025984755
239	0xbd93d7f9	-0.07218928
240	0xbd6d7524	-0.057973042
241	0xbda3c2d6	-0.079961464
242	0xbc63affa	-0.013896937
243	0xbd771676	-0.060324155
244	0x3dba081c	0.09083578
245	0x3d8a1228	0.06741744
246	0x3bcc5a33	0.0062363385
247	0x3db0f674	0.08640757
248	0x3d368357	0.04455885
249	0x3d0afef6	0.033934556
250	0x3dceff5b	0.10107299
251	0xbd894e5f	-0.06704401
252	0xbcc1f779	-0.023677574
253	0xbb2e29cd	-0.0026575208
254	0x395ff99a	0.00021359921
255	0x3c9f7933	0.019466972

action_value.4.bias f4 [9]
0	0x3db11805	0.086471595
1	0xbd3281a2	-0.04358066
2	0x3d5a19a2	0.0532471
3	0xbae2d15e	-0.0017304828
4	0xbdb96709	-0.090528555
5	0xbbae4a94	-0.005318949
6	0x3bc35fcc	0.0059623476
7	0x3b279fb7	0.0025577375
8	0x3cc9e1d5	0.024643818
