Pts/test_trainer.pt (torch, 46417 bytes, 6 tensors)

action_value.0.weight f4 [100, 4]
000000 04 63 8a be ae f4 ae 3e 16 ef e2 3e c0 72 b9 bd
       -0.27028668 0.3417105 0.44323033 -0.0905509
000010 c0 0a 20 be b0 1c 9b be 9c e4 21 be f8 96 c5 be
       -0.15629101 -0.30295324 -0.15809864 -0.38591743
000020 88 23 da 3e 3a 89 e5 be 6e fb b9 3e 40 90 5b 3d
       0.42605233 -0.44831258 0.36324638 0.053604364
000030 16 3d d4 be 78 3b ad 3e c0 e9 92 be 00 d8 21 3e
       -0.41452855 0.33834434 -0.28693962 0.15805054
000040 40 ed a8 bc 50 30 d0 be 48 11 96 3d be 89 f9 be
       -0.020620942 -0.4066186 0.07327515 -0.487379
000050 cc d8 69 be fa 20 c6 be 12 cc a4 3e 0e 20 99 3e
       -0.22836608 -0.38697034 0.32186943 0.29907268
000060 f0 1e ae 3d b2 6e f1 be 36 05 82 be e0 11 30 bd
       0.085019946 -0.47154766 -0.253946 -0.042985797
000070 f0 4e 77 3e 10 0b ba 3d 56 50 b4 3e a0 6c f7 bd
       0.24151206 0.09084141 0.3521754 -0.120812654
000080 58 d0 92 3e 08 b5 f8 3e 96 bb dc be b8 55 81 3e
       0.2867458 0.48575616 -0.43111867 0.2526071
000090 d0 f7 de 3d d0 d7 21 3e ae 91 a3 3e a8 c5 9b bd
       0.1088711 0.15804982 0.31947082 -0.07606059
0000a0 60 aa 1c 3d 54 a6 9d 3e dc ec c6 3e 48 4b 89 be
       0.03824842 0.3079096 0.38852584 -0.26815248
0000b0 78 f7 8c 3e c8 d5 bf be 18 2d 0a 3e 36 99 c5 be
       0.27532554 -0.3746779 0.13493764 -0.38593453
0000c0 00 14 b3 be f0 97 0c bd a8 10 cd bd ae 61 d3 3e
       -0.34976196 -0.034324586 -0.100129426 0.4128546
0000d0 b0 a6 02 3d 10 db 45 3d 00 5e 13 bb 30 ed f9 be
       0.031897247 0.048304617 -0.0022486448 -0.48813772
0000e0 48 2b 6e 3e 50 c6 b8 be 64 1e c9 be a0 33 a6 3e
       0.23258698 -0.360888 -0.39281 0.32461262
0000f0 28 4a 8e 3d bc b4 a1 be a0 68 b0 be ae 33 a4 3e
       0.06947738 -0.31583202 -0.34454823 0.32070678
000100 a0 05 d4 3d 80 5b 48 bc 2c f5 5b 3e 22 07 de be
       0.103526354 -0.012228847 0.21480244 -0.43364817
000110 c8 83 b7 be f4 7c dc 3e e0 d4 26 bd fe 31 98 be
       -0.3584273 0.43064082 -0.040730357 -0.2972564
000120 e4 6e ba be 18 cd 43 3e 94 11 79 3e 62 a7 dd 3e
       -0.36412728 0.19121206 0.24323112 0.43291765
000130 22 77 e4 be d8 78 54 3e 92 d9 ec 3e e2 56 fa be
       -0.4462214 0.20749223 0.46259743 -0.4889441
000140 92 6a e5 be 94 af a4 3e 18 67 44 3e 1c ec 62 3e
       -0.4480787 0.32165205 0.19179952 0.22160381
000150 70 9f 7d be 26 b6 a3 3e 3e 25 c0 be f4 35 ee be
       -0.24767852 0.31974906 -0.37528414 -0.46525538
000160 92 fc d0 be f0 e6 59 3d 74 a2 ef 3e e0 67 dd 3c
       -0.40817696 0.053198755 0.4680363 0.02702707
000170 20 9c ae 3c 14 cb c1 be 76 f8 a1 be be a9 f6 be
       0.02131468 -0.3785025 -0.31634873 -0.48176378
000180 d0 53 20 3e 48 e6 ab bd e8 f0 8f 3e b8 6b ac be
       0.15656972 -0.08393532 0.28113484 -0.33675933
000190 b8 a1 eb 3d 26 51 b6 3e b6 2c 93 3e c8 6d 34 3e
       0.11505455 0.35608786 0.2874505 0.17620003
0001a0 44 fe 7c be 30 e0 27 be c8 76 3d be 16 cc f0 be
       -0.2470637 -0.16394114 -0.18502343 -0.47030705
0001b0 00 7f fe be 18 5a e8 be 1c 62 41 3e 34 17 2c 3e
       -0.49706268 -0.45381236 0.18885082 0.16805726
0001c0 90 d7 bd bd be 5e fb be c2 4c cb 3e 4c c8 08 3e
       -0.09269631 -0.4909572 0.39707 0.13357657
0001d0 3c d1 1f be e0 3a df 3d dc 86 99 be 0c 0d 0a 3e
       -0.1560716 0.108999014 -0.29985702 0.1348154
0001e0 b0 78 3c 3e 2a d1 8a be 08 ae bd bd 2c 71 77 3e
       0.18405414 -0.27112705 -0.092617095 0.24164265
0001f0 48 3d 22 be 96 3a ad 3e a4 62 dd be b8 d7 73 be
       -0.1584369 0.3383376 -0.4323932 -0.23812759
000200 42 ee db be b4 66 41 3e 06 ef b0 be 48 3e 9f 3d
       -0.42955214 0.18886834 -0.3455736 0.07775551
000210 90 45 dd bd e8 46 ac bd ae a3 db be 5a d4 87 be
       -0.108042836 -0.08411962 -0.42898315 -0.265292
000220 9a c2 ca 3e 98 7a f2 3e 68 cb bf 3d 20 63 1c 3e
       0.39601594 0.47359157 0.093649685 0.15272188
000230 5c a8 80 3e 00 14 2b be 00 d5 ed 3c f0 52 f9 bd
       0.25128448 -0.16706848 0.02903223 -0.12174022
000240 bc df f1 3e a0 07 72 be 60 76 77 3d f0 e6 62 bd
       0.47241008 -0.23635721 0.060415626 -0.05539602
000250 40 45 83 3e e0 ec 8f bd 6c c2 54 be 64 94 42 3e
       0.2563877 -0.07027602 -0.20777291 0.19001919
000260 10 4c dd 3d 60 1d dd 3e b8 47 ee 3e 80 72 02 3d
       0.108055234 0.43186474 0.46539092 0.031847477
000270 c0 5b cf 3e 2e c0 ee be 40 83 14 3d 12 2c d3 be
       0.40499687 -0.46630996 0.036257982 -0.4124456
000280 a8 84 40 3e e0 23 cd 3c d4 bd 91 be 04 2c 3e be
       0.18800604 0.02504152 -0.2846514 -0.18571478
000290 28 21 02 3e 30 f6 32 3d 0e d1 96 3e 78 8f 11 be
       0.1270796 0.043691814 0.2945637 -0.14214885
0002a0 20 9b d3 be 4e 34 8e be 12 58 a3 be 1c ea f1 be
       -0.41329288 -0.2777428 -0.3190313 -0.47248924
0002b0 bc 0c 1c 3e c6 8d b4 be 10 19 a1 3e e0 ab ad be
       0.15239233 -0.35264415 0.31464434 -0.33920193
0002c0 16 c5 da 3e 48 22 39 3e 28 31 b4 be a0 7b 23 bd
       0.4272849 0.18079484 -0.35193753 -0.03991282
0002d0 80 72 85 3b 30 a8 30 bd 90 5d 60 bd 4c 75 2a 3e
       0.0040724874 -0.043129146 -0.05477673 0.16646308
0002e0 2c 8b 70 3e ec 72 da be 70 e0 19 bd 90 4f d6 bd
       0.2349059 -0.42665803 -0.037567556 -0.10464394
0002f0 c4 55 0f 3e 78 5d df be f0 86 ff 3d 00 ee c0 3b
       0.1399756 -0.43625998 0.12476909 0.005887747
000300 1e f7 bd 3e b0 ce 13 bd 7a 71 b2 3e 58 17 26 3e
       0.37102598 -0.036085784 0.348522 0.16219842
000310 90 35 3e bd a8 f0 d5 be d0 1d 51 3d 80 39 46 bd
       -0.0464378 -0.4178517 0.051053822 -0.04839468
000320 9e 18 97 be d8 eb 8a be fc 57 77 3e 00 f8 de bb
       -0.2951097 -0.2713306 0.24154657 -0.0068044662
000330 98 9c c7 be 7c 0c c6 be 16 5a a2 3e 3c 4f 44 3e
       -0.3898666 -0.386814 0.31709355 0.1917085
000340 e8 d6 f7 be 3c 2b 7e 3e da 77 9f 3e e4 52 6b 3e
       -0.48406148 0.2482118 0.31146127 0.22980839
000350 0c 88 fb be 62 21 ee be 00 0c 4c 3d a0 04 57 be
       -0.49127233 -0.46509844 0.04981613 -0.20997858
000360 4a 7b d8 be 00 51 ec bb a8 12 b4 bd c0 74 b1 bd
       -0.42281562 -0.0072118044 -0.08792621 -0.086648464
000370 f2 49 e5 be b4 a4 6a be 10 c2 4f bd 64 85 34 3e
       -0.44782978 -0.22914392 -0.05072218 0.1762901
000380 0a 5d e8 3e b2 c6 80 3e 50 d6 f8 3e ea c0 ca 3e
       0.45383483 0.25151592 0.48601007 0.39600307
000390 c0 0c 6b 3d 84 64 01 3e 84 02 b6 be 3c 55 70 3e
       0.057385206 0.12636 -0.35548794 0.23470014
0003a0 20 4e 6b 3d b4 1a ac 3e b4 c2 5e be 04 0d dc 3e
       0.057447553 0.33614123 -0.21753961 0.4297868
0003b0 c4 fd d4 3e 90 34 4d be a0 aa 73 bd a8 80 d2 3e
       0.41599858 -0.20039582 -0.059488893 0.41113782
0003c0 3c 6d 9d 3e 00 ac c6 bb 60 c4 fa 3e 28 45 74 be
       0.30747402 -0.0060629845 0.48977947 -0.23854506
0003d0 48 2f e2 be 58 bc 93 3e 9a 92 b5 be 32 b6 a3 be
       -0.44176698 0.28854632 -0.3546341 -0.31974941
0003e0 1c d1 ba be ee 4e 8a 3e 66 19 b7 be 88 4b f7 3d
       -0.36487663 0.27013344 -0.35761565 0.12074953
0003f0 6c e2 f8 be 68 d5 a2 be 7a ff b6 be 88 ff a2 bd
       -0.48610246 -0.3180344 -0.35741788 -0.07958895

action_value.0.bias f4 [100]
000000 ac d3 11 be 0e a0 ed be c0 49 29 3e 9e cc e2 3e
       -0.14240903 -0.46411175 0.1653204 0.44296736
000010 e8 51 4a 3e fa 20 bb be 26 79 dc be 14 68 bf be
       0.19757807 -0.36548597 -0.4306118 -0.37384093
000020 be 54 fa 3e ce 40 d6 be e4 54 0c 3e ec 61 bb be
       0.48892778 -0.41846317 0.13704258 -0.36598146
000030 66 d2 c1 3e 84 c4 d7 be f4 de 33 3e fe f0 d9 3e
       0.37855834 -0.42142117 0.17565519 0.42566675
000040 12 d7 c5 3e 3a a9 b7 be c6 8b bd 3e f0 0e fb bd
       0.38640648 -0.35871297 0.370207 -0.122587085
000050 30 a9 d5 3d 88 08 28 be 48 9c 81 bd ac a9 47 3e
       0.104326606 -0.16409504 -0.063286364 0.19498318
000060 d0 33 fe 3d 38 95 e2 3d 80 84 ef 3c 8c 3d 97 be
       0.12412226 0.110636175 0.029237986 -0.29539144
000070 58 68 ec 3d 4c 79 9f be 8a c6 9d 3e a4 dc d3 be
       0.115433395 -0.3114723 0.30815536 -0.41379273
000080 24 12 90 3e 30 9a 93 3d 40 81 28 bd b0 ef fd 3e
       0.2813884 0.07207143 -0.041138887 0.4959693
000090 40 0d 8b be b0 c4 8f 3e ce 08 ad be 68 dd 91 be
       -0.27158546 0.28079748 -0.3379578 -0.28489232
0000a0 44 bf 5e 3e b0 a5 de be 96 b5 a5 3e 24 c8 2a 3e
       0.2175265 -0.43485785 0.32365102 0.1667791
0000b0 20 03 57 3d 7a 9b ea be 6a c9 d3 3e 2e 92 9a be
       0.052493215 -0.45821744 0.41364604 -0.3018965
0000c0 0c 18 d9 3e b4 0c b8 3e 00 8c d9 3a 42 e8 9c 3e
       0.4240116 0.35947192 0.0016597509 0.3064595
0000d0 18 f8 9f be aa 63 c5 be 40 ca 42 3d 88 e2 a4 3e
       -0.31243968 -0.385526 0.047556162 0.3220408
0000e0 50 02 49 3d d8 3f a3 3e 6c 2d cb 3e 30 38 69 3e
       0.04907447 0.31884646 0.39683092 0.2277534
0000f0 18 a0 9a bd 0c 40 a1 be 30 09 1a 3e c0 7c c0 bc
       -0.07550067 -0.31494176 0.15042567 -0.023496985
000100 3e cb b3 3e 8e ed f0 3e 28 d6 b9 3d 30 1b 2d bd
       0.35116 0.4705624 0.0907405 -0.042262256
000110 7e 18 93 3e 0e 34 e9 3e 68 bf 6f be 00 f5 dc 3b
       0.28729624 0.45547527 -0.2341286 0.0067430735
000120 fe 88 fb be 08 88 09 be 72 c2 c3 be 00 09 da bb
       -0.49127954 -0.13430798 -0.38234288 -0.006653905
000130 98 b2 2f be 08 c3 ca 3d a0 f7 b1 bd fe 9b de be
       -0.17157972 0.099004805 -0.08689809 -0.43478388
000140 66 c9 95 3e b8 21 c6 3d 6c 6c 20 be f8 e1 29 3e
       0.29255217 0.096744 -0.1566636 0.16590106
000150 da 89 c4 3e 90 f0 fc 3e 8c db 45 3e c8 16 ca 3d
       0.38386422 0.49402285 0.19322032 0.098676264
000160 76 fb ac 3e e2 17 9e 3e c4 02 4d 3e 3c 70 9b be
       0.337856 0.30877596 0.20020586 -0.30359066
000170 e2 53 c0 be 5a bc 8a be f0 3e 78 bd 0a 76 e6 be
       -0.37563998 -0.27096826 -0.060606897 -0.45011932
000180 02 a5 89 3e 90 eb b0 be f4 b4 c1 3e 8c 9f 22 be
       0.26883703 -0.3455472 0.3783337 -0.15881175

action_value.2.weight f4 [100, 100]
000000 6b c2 8f bd 47 ac bc bd a0 a7 2b 3d b7 e7 8a bd
       -0.07019504 -0.09212547 0.041907907 -0.06782477
000010 dd f9 ac 3d 07 43 3a 3d 53 bd 94 3c 6d 8a 7d bd
       0.08446095 0.04547408 0.018156683 -0.06189959
000020 5d cf 93 bd 8d f3 9e bd 83 0d 10 bd 0d 28 0a bd
       -0.07217286 -0.077612974 -0.035169136 -0.0337296
000030 b7 20 a8 bd ab 09 b9 bd 07 47 1d bd a0 f3 b4 bd
       -0.08209365 -0.09035047 -0.038397815 -0.0883553
000040 ed 81 60 bd a8 99 c2 bd 80 41 8b 3b cd d4 4c 3b
       -0.054811407 -0.09501964 0.0042497516 0.003125477
000050 67 05 2a 3b 13 9f 89 3d 67 7d f5 3c 4d cb fb 3c
       0.0025943161 0.06719794 0.029967023 0.03073659
000060 78 78 84 3d b0 4d c1 3d 9a ac 3e 3b 4d d4 a2 bd
       0.0646829 0.09438646 0.0029094578 -0.079506494
000070 cb a1 97 3d ea f4 18 bd 4d 62 91 bc 03 c9 0b 3d
       0.074039064 -0.037342943 -0.017747069 0.034127247
000080 b2 c1 b8 bd b7 20 0f bd 62 18 90 3d 80 81 cb 3d
       -0.090213194 -0.03494331 0.07035901 0.099368095
000090 63 01 9a bd aa 04 05 bd e0 4f d5 bc 4a 01 40 3d
       -0.07519796 -0.03247515 -0.026039064 0.04687623
0000a0 3a 1b 92 bd 9a 4e 74 bc 4d 27 4b 3c 43 24 07 3d
       -0.07134099 -0.014911318 0.012399507 0.032993566
0000b0 ed 85 90 3c 5a 25 b8 bc 05 05 87 bd 3f ad cc 3d
       0.017641986 -0.022478748 -0.06592754 0.099939816
0000c0 60 74 83 3c 77 d5 3b 3d 27 03 2a 3c 4d 5e 1f bc
       0.016046703 0.045857873 0.010376728 -0.009727073
0000d0 b3 07 97 3b 3d 35 5e 3d 1a 7c be bb 00 fe ba bb
       0.004609072 0.05424999 -0.005813134 -0.0057065487
0000e0 a3 7a 0c 3d c7 c1 1f bd 47 d4 b5 3d 50 5e 06 bd
       0.034296643 -0.03900316 0.08878379 -0.032804787
0000f0 fa a9 00 bd 40 23 36 bd 1a 32 dc bc d3 ce f2 bc
       -0.031412102 -0.04446721 -0.026879359 -0.029639637
000100 6a 07 c5 bd 67 82 bc bb 1f 0f c5 bd d7 db 41 3d
       -0.09620555 -0.00575285 -0.09622025 0.047328796
000110 4d b8 99 3c 13 41 c8 bc ad e9 9a 3c 4d 26 bc 3c
       0.01876464 -0.024445092 0.018910253 0.022967482
000120 67 a1 b2 3d bd 44 05 3d 3b f2 a0 3d e0 2f 16 3d
       0.08722191 0.032536257 0.07858702 0.03666675
000130 7a ab 15 bd ba c0 7f bd 6b 4f c0 3d 93 c8 f0 bc
       -0.036540486 -0.062439658 0.09390148 -0.029392516
000140 17 a7 7c 3d a2 fb c8 3d cd 97 d5 3c 07 4d b6 bd
       0.061682787 0.0981362 0.02607336 -0.089014105
000150 b3 d3 2b 3d 00 92 16 3c a0 bf 84 3c 73 9c a3 bd
       0.04194994 0.009190083 0.016204655 -0.07988825
000160 50 74 ae 3d 9a a1 b9 ba 67 9e 51 3c 85 d8 a5 3d
       0.085182786 -0.0014162541 0.012794114 0.080979384
000170 05 a8 a4 bd cd 70 61 bb 5a 05 a6 3d cd b2 e0 bc
       -0.0803986 -0.003439951 0.081064895 -0.027429009
000180 83 80 6b 3d 1a 8d b8 3b 8b 4f c0 bd e2 24 b4 3d
       0.057495605 0.005632055 -0.093901716 0.08796097
000190 2b f2 a8 3d 82 b2 a9 3d 33 0c b2 bd 10 78 29 3d
       0.08249315 0.08286001 -0.08693733 0.041374266
0001a0 9a 39 b7 3c cd b5 a8 bc cf aa 89 bd cd 0c 40 bd
       0.022366334 -0.020594502 -0.06722032 -0.046887208
0001b0 37 e2 29 bd 67 43 4b 3c 62 4f 98 bd dd ad 7e bd
       -0.0414755 0.012406207 -0.07437016 -0.062177528
0001c0 d7 7e 3d 3d 77 c2 3d 3d 97 65 0c bd f0 c6 74 3d
       0.046263542 0.046328034 -0.03427657 0.059760034
0001d0 f2 76 8b bd 10 1d 14 3d ba 6b f2 bc 67 f4 8b 3d
       -0.068097964 0.03616053 -0.029592384 0.068337254
0001e0 aa 9f 62 3d 02 fd c7 3d 60 94 ba bd d3 d5 67 bd
       0.05532805 0.09765054 -0.091103315 -0.056600403
0001f0 ed 29 34 3d 73 88 f8 bc 2d ca da 3c f0 02 16 bd
       0.043985296 -0.030338502 0.026707733 -0.036623895
000200 a0 32 f7 3c 10 74 88 bd a7 cf 00 3c 73 1d 5f 3c
       0.030175507 -0.06662762 0.007862008 0.013617861
000210 cd 36 1e 3b cd ec 14 b9 5d 5e bf bd 67 cf 9d bb
       0.002414155 -0.00014202595 -0.0934417 -0.004815984
000220 ed ea 96 bc 5b 43 92 bd 7d 51 ac bd ca 44 9d 3d
       -0.018422568 -0.07141753 -0.0841398 0.07679136
000230 a8 cb bb bd ed 3b 92 bc 3f fe aa 3d ad 5e 08 bd
       -0.09169704 -0.01785084 0.08349275 -0.033293415
000240 33 65 c2 bd bd 15 8e bd 67 3a 9b 3b da da a5 3c
       -0.094919585 -0.0693774 0.0047371867 0.020245958
000250 fa 2e ab 3c 3b cf be bd 18 df c4 3d 9a 61 f3 39
       0.020896424 -0.0931687 0.09612864 0.0004642129
000260 20 2b 75 bd 9a 89 05 ba 82 53 ba bd 73 c3 f4 3c
       -0.05985558 -0.00050940516 -0.09097959 0.029878354
000270 b7 84 7e bd 30 7f a2 3d e7 3f 9d bc b7 a2 c8 bd
       -0.062138285 0.07934415 -0.01919551 -0.097966604
000280 17 83 71 bd 53 80 97 bc c0 8f 2f bd 9d dd 1a bd
       -0.058962908 -0.018493807 -0.0428617 -0.037809003
000290 ad 25 0a 3d 75 ea a2 bd 5f a2 ab 3d 02 19 b3 3d
       0.033727337 -0.079548754 0.08380579 0.08745004
0002a0 b7 df 4b 3d 60 cb 22 bd a2 9b c2 3d 07 c9 8f bd
       0.049773898 -0.039744735 0.09502341 -0.07020765
0002b0 00 90 a3 3c ea 8b 48 3d 03 51 9e 3d 0b 92 cb bd
       0.019966125 0.048961557 0.077302955 -0.09939965
0002c0 28 b0 b9 3d 13 07 ab bd 22 bc a6 3d 67 f7 dc bc
       0.09066802 -0.08350959 0.08141352 -0.02697344
0002d0 1d b3 b4 bd ad 62 e6 3c 5a 9f 35 3d 9f bf 86 3d
       -0.08823226 0.028123224 0.044341423 0.065795176
0002e0 43 fa 52 3d 75 2e aa 3d 0d 14 0d 3c c0 ae 78 3d
       0.0515082 0.08309642 0.0086107375 0.06071353
0002f0 45 c1 bc bd a8 8c c5 bd 3f 09 97 bd 53 16 50 3d
       -0.09216551 -0.09645969 -0.073748104 0.05080254
000300 6d 37 a7 bd 7d c2 a4 3d 42 a7 90 3d c7 d7 b5 bd
       -0.081648685 0.08044908 0.07063152 -0.08879047
000310 20 f2 48 bd cd d2 ad 3d cd c2 6b 3b 47 cf 6d bd
       -0.049059033 0.08487473 0.0035974265 -0.058059003
000320 00 18 e7 bb e0 5b 4c bd 9d 68 3e 3d f3 3b 34 bd
       -0.0070524216 -0.049892306 0.046486486 -0.044002485
000330 0a d6 76 bd ed 75 ad bc a7 32 15 bd 20 6e 5e 3d
       -0.060262717 -0.021174395 -0.03642526 0.054304242
000340 60 3b a4 bd 58 e4 b4 bd 6a 8b 35 3d eb 79 c3 bd
       -0.080191374 -0.088326156 0.04432241 -0.095447384
000350 0b ae 93 bd 1a 98 e3 3c 10 49 22 3d 67 e9 6e 3b
       -0.072109304 0.027782489 0.03962046 0.0036455037
000360 15 fe c1 3d 5a 6e 69 bc 10 00 96 bd 2a be c1 bd
       0.094722904 -0.014247501 -0.07324231 -0.09460099
000370 fa 97 a4 bd cb 45 9e bd 4a d4 62 3d 3d c0 0d 3d
       -0.080368 -0.07728156 0.055378236 0.03460716
000380 ef fb c7 3d 50 4c 41 3d f7 83 65 bd ba ca b8 bc
       0.097648494 0.047191918 -0.056034055 -0.022557605
000390 a7 83 0e 3d 30 d1 86 3d d7 cf 2b 3d b3 05 52 3d
       0.034793522 0.06582868 0.04194626 0.051274966
0003a0 5f 46 b4 3d 1a 8d 29 3c cd 82 93 bd 47 c7 16 3d
       0.08802485 0.010348583 -0.07202683 0.03681114
0003b0 da f7 12 3d 00 13 a0 3b 67 39 ba 3d da da f4 bc
       0.0358809 0.0048850775 0.0909298 -0.029889513
0003c0 4d 50 6a 3c 0d 2b cd 3c 95 82 90 bd 27 c1 b4 bd
       0.014301372 0.025044942 -0.070561565 -0.088259034
0003d0 67 74 c2 3b 1a e6 a6 bd 02 86 ac 3d 65 e0 a0 3d
       0.0059342864 -0.08149357 0.084239975 0.078553
0003e0 93 63 65 3d d3 51 85 bc 52 c2 ca 3d 0d c4 2d 3c
       0.056003164 -0.016274368 0.09900345 0.010605824
0003f0 13 2b b2 bd 93 18 98 bd 63 19 c1 3d 73 10 35 3c
       -0.08699622 -0.07426562 0.0942867 0.011051285

action_value.2.bias f4 [100]
000000 00 75 69 3d 80 99 c4 bb 4d ef 49 bc e0 79 65 bd
       0.056996346 -0.005999744 -0.01232512 -0.056024432
000010 58 ed a4 3d 97 36 5c bd ca 46 04 3d 00 6b 40 3d
       0.08053082 -0.053763 0.032294072 0.046977043
000020 c0 c7 7e bc 13 2a c6 bd f3 6a 24 bd 47 70 49 3d
       -0.015550554 -0.09675994 -0.040141057 0.04917934
000030 7d 9e 4b 3d 00 89 da bc aa a5 76 3d 4d 0c 71 bd
       0.049711693 -0.026676655 0.060216583 -0.05884962
000040 4d a0 fe 3b 6d fe 86 3d e8 21 c0 bd 80 69 76 bd
       0.007770574 0.065914966 -0.09381467 -0.060159206
000050 80 e8 7e 3d 2d cd c2 3d 40 b5 c6 3c 3b ef a4 bd
       0.062233448 0.095117904 0.024256349 -0.08053442
000060 32 da 91 bd 23 89 ac 3d 82 e4 a0 3d 8b c2 a2 bd
       -0.071216956 0.08424594 0.078560844 -0.079472624
000070 f7 4c 95 3d 93 ea c3 3d 05 43 80 3d b5 ee 83 3d
       0.072900705 0.09566226 0.06262783 0.06442014
000080 4a 29 86 bd 5a f3 f6 3c b3 eb 5b bd 33 d7 a1 bb
       -0.06550844 0.030145336 -0.053691577 -0.004938984
000090 22 ed bc 3d e3 be 56 3d 10 90 65 3d 43 4c 53 3d
       0.09224917 0.052428138 0.05604559 0.0515864
0000a0 97 aa 15 3d b5 b9 b4 3d 3a ed 8a 3d 5d 31 9b bd
       0.03653964 0.08824483 0.067835286 -0.07577775
0000b0 3a 39 a2 3d 8d c3 6c 3d 73 6c 0f 3d b3 4c a7 3d
       0.07921071 0.05780368 0.035015535 0.08168926
0000c0 3a 71 32 3d 83 8b 00 3d d7 2c 9e bd 33 79 30 bd
       0.043565013 0.03138305 -0.07723396 -0.043084335
0000d0 0d e0 85 3d 3f 77 9a 3d 93 75 86 3c 47 24 a4 3c
       0.06536875 0.07542276 0.016413486 0.02003683
0000e0 23 23 84 3d ed d9 78 bd fb 3c a6 3d 4a cd 95 bd
       0.06452014 -0.060754705 0.081171 -0.073145464
0000f0 ed 4c dc bc 8a e7 6e 3d ef 7d 94 3d 20 7d b1 bc
       -0.02689215 0.05832628 0.072505824 -0.02166611
000100 73 d1 7b bd 9a f6 12 3b b5 d3 bf bd 53 0c 2f bd
       -0.061479043 0.0022424818 -0.09366552 -0.042736363
000110 1b 36 af 3d c0 91 71 3d 7b e0 c1 bd 4d 40 9e bb
       0.08555242 0.05897689 -0.094666444 -0.0048294426
000120 b3 ca a6 3b 9a af e2 bb 7f 0f 99 bd d0 28 66 bd
       0.0050900816 -0.006917906 -0.07473659 -0.056191266
000130 b3 de a9 bd 42 36 8a 3d 1a 66 2c 3d 4d 9a eb 3c
       -0.0829443 0.0674863 0.04208956 0.0287601
000140 ed fa 43 3d 73 1a e7 bc ed a7 81 3c 17 b0 4b 3d
       0.047846723 -0.028210854 0.015827144 0.04972848
000150 97 18 3c 3d 7a 90 a8 bd 9a 99 d6 b7 35 25 a9 bd
       0.04592189 -0.08230682 -2.5582314e-05 -0.0825905
000160 0d ca 3c bc 4d 87 6d bd 2d 2d 24 3d ba 4b c1 bd
       -0.011522782 -0.05799036 0.040082145 -0.09438272
000170 aa 89 83 3d ea 72 a4 bd 4d 34 d9 3b 57 94 6f bd
       0.06422742 -0.080297306 0.006628549 -0.058491077
000180 2d b4 9b bd 5b e4 a6 bd 00 60 8a bd 80 81 ec bc
       -0.07602725 -0.08149024 -0.06756592 -0.028870344

action_value.4.weight f4 [2, 100]
000000 e0 38 88 bd 3a f0 69 3d 67 55 e4 3c 3b bf ad 3d
       -0.06651473 0.057113864 0.027872754 0.0848374
000010 da 37 3f 3c c3 89 0e 3d ad 3d e1 3c c5 df c5 bd
       0.011671031 0.03479935 0.02749523 -0.09661821
000020 a5 30 9d bd 5d 12 c1 3d 50 7e 78 bd c0 e3 94 bd
       -0.07675294 0.09427331 -0.060667336 -0.07270002
000030 cd e4 b9 3a bb fe c5 bd 60 bd af bd 97 c6 39 3d
       0.0014182568 -0.096677266 -0.08581042 0.045355406
000040 fb 42 9b 3d 9d 50 1a bd a7 34 8f bc 80 ee 66 3d
       0.07581135 -0.037674535 -0.017481161 0.056379795
000050 9a c3 fb ba 18 61 8b bd 92 b1 b1 3d 4d 40 73 bc
       -0.0019208074 -0.068056285 0.08676447 -0.0148468735
000060 45 3a cc bd 4b 2d 9d 3d 67 0e 22 3c 60 ad ee bc
       -0.099720515 0.076746546 0.009891129 -0.029135406
000070 63 01 be 3d 62 f1 97 3d 67 1a 6e 3d f3 c1 a4 3c
       0.09277608 0.07419087 0.058130648 0.020112013
000080 9a 0d c4 3b e7 1d 57 bd 43 e6 41 3d 62 a5 8b 3d
       0.0059830667 -0.05251875 0.047338735 0.06818654
000090 9a b1 26 bc 0d 76 3e bd 4d be 38 bd c7 7a a5 bc
       -0.010174179 -0.0464993 -0.04510336 -0.020200146
0000a0 53 03 35 3d 87 66 e6 bc c7 a0 fe 3c f8 ae 93 bd
       0.044192623 -0.02812506 0.031082524 -0.07211107
0000b0 4d 0a 29 3c 5a e8 29 3c 0d 11 37 bd e0 ce cf 3c
       0.010317397 0.010370338 -0.044693995 0.0253672
0000c0 67 ff 4b 3d 50 88 b6 3d 93 21 e0 3c e7 89 e7 3c
       0.049804118 0.08912718 0.02735976 0.028264
0000d0 27 0f af 3c 80 13 a2 3c 3a d2 90 bd ba 08 e3 bc
       0.02136953 0.019784689 -0.070713475 -0.027714122
0000e0 15 bc a2 3d b7 15 b7 bd 00 14 27 bb d7 5c 4c bd
       0.0794603 -0.08939689 -0.0025494099 -0.049893226
0000f0 13 15 fe 3c 4f 5a b3 3d 70 5c 6f 3d a0 21 c6 bc
       0.031015908 0.08757459 0.058437765 -0.024185956
000100 fd a5 5d 3d 27 30 a8 bd a7 5d df bc 0f 28 c8 bd
       0.054113377 -0.08212309 -0.027266337 -0.097732656
000110 7a 6a 91 bc 03 57 1c 3d 00 7f 78 3c 33 b4 ef bb
       -0.017750967 0.03816892 0.015166998 -0.0073151826
000120 bd c9 52 bd 4d f7 7d 3d 8d ef 29 bc 1a 7c bc 3d
       -0.051461924 0.062003423 -0.010372055 0.09203358
000130 ad 5a 94 bd 8d e6 c5 bc e0 0e 91 3c cd 12 64 3c
       -0.072438575 -0.024157787 0.017707288 0.013920498
000140 93 53 35 bd 00 8d 4b 3c 50 c8 7c bd 9a fb a1 bc
       -0.044269156 0.012423754 -0.06171447 -0.019773293
000150 07 25 57 3d 80 b1 1b 3d b7 f5 8f 3d a7 80 0d 3c
       0.052525546 0.038011074 0.07029288 0.00863663
000160 aa ae 79 bd 1a a5 96 bc 37 f4 56 bd 2d 88 98 bc
       -0.06095759 -0.018389273 -0.052478995 -0.018619621
000170 b7 fd 41 3d 00 e5 09 3c 40 dd 65 3d 57 ea 3e 3d
       0.047361102 0.008416414 0.056119204 0.046610203
000180 dd e9 60 bd b8 e2 9d 3d 7a ce 5f bd 4d 7c 7c 3d
       -0.05491053 0.07709259 -0.05464027 0.06164198
000190 cd 45 6b 3d 0f 8b be 3d e7 1a a1 3c 55 3c 9f 3d
       0.057439614 0.09303867 0.019666148 0.07775179
0001a0 d0 61 59 3d 00 72 12 3b 13 12 96 3d 0d 9e 91 3c
       0.053071797 0.0022345781 0.07327666 0.01777556
0001b0 c7 9c 8c bc 9a 99 f3 3c a3 86 b9 bd e3 63 6f bd
       -0.017164601 0.029736329 -0.09058883 -0.05844487
0001c0 8a ce a4 3d 8d f2 14 bd 77 ea 53 3d cd 94 86 3c
       0.08047207 -0.036364127 0.051737275 0.016428376
0001d0 8d 6f 9e 3d 2f 9d b3 3d 20 dd 3b bd f7 8e 9d bd
       0.077361204 0.08770215 -0.045865178 -0.07693284
0001e0 a0 0a 9a 3d a7 e2 32 3d e5 7c 93 bd 40 ea b1 3d
       0.07521558 0.043673184 -0.07201556 0.08687258
0001f0 03 c8 64 bd f3 20 a5 bd 1d db 3c bd 9a 71 0b 3a
       -0.05585481 -0.08062925 -0.0461074 0.0005319357
000200 ca 42 b5 3d 33 7c 8b 3b 03 e8 c3 bd 4d 51 2e 3c
       0.0885063 0.004256749 -0.09565737 0.010639501
000210 43 60 a2 3d e7 a5 5a 3c ea dc 18 bd ed e1 24 3d
       0.07928517 0.013345218 -0.037320055 0.040254522
000220 a5 81 b2 bd c8 17 a8 bd 37 e3 a4 bd 57 09 14 3d
       -0.08716134 -0.08207661 -0.0805115 0.03614172
000230 ed 55 93 bc 80 18 71 3c 88 8d b1 3d d8 b4 be bd
       -0.017985309 0.014715314 0.08669573 -0.09311837
000240 1a f4 3c bc 0d 8a 89 bc 57 03 73 bd 2f 2e b7 bd
       -0.011532808 -0.01678946 -0.059329357 -0.08944356
000250 73 f7 a5 3d ca 57 48 3d b3 3e 94 bd 9a 89 ee ba
       0.08103838 0.048911847 -0.072385214 -0.0018198967
000260 2d d0 6b bd 7a 43 a3 3c 85 79 8c 3d 2b d8 ab bd
       -0.05757158 0.019929636 0.068591155 -0.0839084
000270 7a e4 1d bd 4d eb 0e 3d f2 03 bc 3d b3 0e 26 3c
       -0.03854797 0.03489237 0.0918044 0.0101353405
000280 3d e7 20 3d 67 e4 aa ba a7 95 1c 3d 43 d7 49 bd
       0.039283026 -0.001303804 0.038228657 -0.049277555
000290 b3 4d 8f bb fd 9f 28 bd 00 e7 2d 3d 0d 33 43 3d
       -0.004373276 -0.0411682 0.042456627 0.047656108
0002a0 93 43 9c 3d 00 b7 fe bb d3 44 68 3d 73 8b f3 bc
       0.07630076 -0.00777328 0.05670626 -0.02972958
0002b0 4a 5b 14 3d 7a 25 8e bd bd a2 83 bd ca a6 78 3d
       0.036219873 -0.06940742 -0.06427524 0.060705937
0002c0 f7 0b c8 bd 4a e7 46 bd 98 d0 a1 3d 67 0d b5 3c
       -0.09767907 -0.04856042 0.07901114 0.022101117
0002d0 e5 43 ae 3d e3 62 a2 3d 4b 51 bf 3d 3a a8 39 3d
       0.085090436 0.079290174 0.09341677 0.04532645
0002e0 b7 da aa bd d7 48 08 3d cd f3 0b 3d a0 8a 82 3c
       -0.08342498 0.03327259 0.034168053 0.015935242
0002f0 80 8a f8 3b 6a 3d 7b 3d 13 be 62 bd 97 35 16 bd
       0.00758487 0.061337866 -0.05535705 -0.0366722
000300 83 ec 7c bd b7 b6 23 3d f7 59 36 bd cd 45 23 bb
       -0.061748993 0.039969172 -0.04451939 -0.002491343
000310 ff 49 9d bd 93 6a be 3c 07 e7 ee bc 97 df c8 3d
       -0.07680129 0.023244178 -0.029162897 0.098082714

action_value.4.bias f4 [2]
000000 d7 c0 5b bd 7f 1c 9e bd
       -0.053650703 -0.07720279
